cellmatching/cellmatching/model_dicts/cell-probability-map-U-Net-best.pt (torch, 475799 bytes, 25 tensors)

encoder.encBlocks.0.conv1.weight f4 [16, 1, 3, 3]
0	0xbec4b870	-0.38421965
1	0xbee53781	-0.4476891
2	0xbf2584ce	-0.6465577
3	0xbf253cdd	-0.64545995
4	0xbe891d06	-0.26779956
5	0xbef31fdf	-0.47485253
6	0xbf242a73	-0.6412727
7	0xbf0c5f84	-0.54833245
8	0xbf06d866	-0.5267395
9	0xbe0c93b1	-0.13728215
10	0xbe93b51c	-0.28849113
11	0x3d657d1d	0.05602752
12	0x3e6bdb95	0.23032983
13	0xbe527288	-0.20551503
14	0xbe1e5887	-0.15463458
15	0xbc566cd0	-0.013087466
16	0xbea78ef3	-0.3272625
17	0xbdc607c0	-0.09669447
18	0x3eb17d27	0.34665796
19	0x3f3a7d50	0.7284746
20	0x3f17ab5b	0.5924584
21	0xbd0b265c	-0.03397213
22	0x3f018b0a	0.5060278
23	0x3ee83df2	0.4535976
24	0xbecf27f1	-0.4046016
25	0xbe933925	-0.28754535
26	0x3d2a9df7	0.041654553
27	0xbe7c6b06	-0.24650201
28	0xbe45745c	-0.19282669
29	0x3e7f0814	0.24905425
30	0xbd41a87a	-0.047279812
31	0xbf0d4c14	-0.5519421
32	0xbe5a9949	-0.21347536
33	0x3f88ba7b	1.0681909
34	0x3eab77da	0.33489877
35	0xbf07e77f	-0.5308761
36	0xbe96dd60	-0.2946577
37	0x3e363d67	0.1779686
38	0x3e216230	0.15760112
39	0x3efeef22	0.4979182
40	0x3d8d1735	0.06889192
41	0x3ee6a1ef	0.4504542
42	0x3da25bba	0.07927652
43	0x3f13026f	0.5742559
44	0x3e8007ad	0.25005856
45	0x3e2556b8	0.16146362
46	0x3eafa995	0.34309068
47	0xbd0ecfbb	-0.034866076
48	0xbe81096b	-0.25202498
49	0xbe9976dd	-0.29973498
50	0xbed3d3da	-0.41372567
51	0x3f1d1d4b	0.6137282
52	0x3ee5759e	0.44816297
53	0x3efadc2e	0.4899611
54	0xbdde5bb7	-0.10857337
55	0xbf078205	-0.5293277
56	0xbf0272f4	-0.50956655
57	0xbf30dcf8	-0.6908717
58	0xbf7bd07f	-0.98365015
59	0xbed9b0bb	-0.42517647
60	0xbe1914f3	-0.14949398
61	0xbf0fee51	-0.56223017
62	0xbee68780	-0.45025253
63	0xb9464800	-0.00018909574
64	0xbe3c4156	-0.18384299
65	0x3e7d29b6	0.24722943
66	0xbdd502f6	-0.104009554
67	0xbd658648	-0.056036264
68	0x3c095b20	0.008383542
69	0x3cb15a40	0.02164948
70	0xbea4b8a8	-0.32172132
71	0xbd07aef8	-0.033125848
72	0xbf124f2b	-0.5715205
73	0x3ec41419	0.38296583
74	0x3f256df4	0.646209
75	0xbf2120b6	-0.6294054
76	0x3e4212e7	0.18952523
77	0x3ee48827	0.44635126
78	0xbeb78393	-0.3584257
79	0xbe2c7213	-0.16840391
80	0xbd4d2555	-0.05008443
81	0x3ee21a61	0.4416075
82	0xbee32308	-0.44362664
83	0x3e8ed15e	0.2789411
84	0x3f47f395	0.7810605
85	0x3c49523e	0.0122876745
86	0x3c92c2ca	0.017915148
87	0x3f12d0db	0.5734994
88	0xbeb51b12	-0.35372216
89	0xbf16d807	-0.5892338
90	0xbef30d01	-0.4747086
91	0xbf55c4bd	-0.83503324
92	0xbed11bb1	-0.4084144
93	0xbf3d7628	-0.7400842
94	0xbf58132e	-0.84404266
95	0xbf11543e	-0.5676917
96	0xbf0e8589	-0.5567251
97	0xbf4e8057	-0.8066458
98	0xbf3cedd1	-0.7380038
99	0xbf335a74	-0.70059896
100	0xbf2d69ec	-0.6773975
101	0xbe65fa2d	-0.22458716
102	0xbf69a1a2	-0.9126226
103	0xbf1ca309	-0.6118627
104	0xbf085175	-0.53249294
105	0xbf308998	-0.6895995
106	0xbe98f26c	-0.29872453
107	0xbeb39bf1	-0.3507991
108	0xbf3a2e52	-0.7272693
109	0xbf8d087b	-1.1018213
110	0xbf68f606	-0.910004
111	0xbef28c18	-0.47372508
112	0xbf029a6e	-0.5101689
113	0xbefa683f	-0.48907658
114	0xbf34ae1c	-0.7057817
115	0xbf5a4600	-0.8526306
116	0xbe8ca728	-0.2747128
117	0xbee99a2b	-0.45625433
118	0xbe9d4b39	-0.30721453
119	0xbe6b32c4	-0.22968584
120	0xbf24e36f	-0.64409536
121	0xbe533eab	-0.20629375
122	0xbe5cce81	-0.2156315
123	0xbdfbd43c	-0.1229634
124	0xbf2e37d0	-0.68053913
125	0xbf2e7a22	-0.6815511
126	0xbf38b789	-0.7215505
127	0xbf255999	-0.6458984
128	0xbf1525cf	-0.58260816
129	0xbf874857	-1.0568951
130	0xbf99509e	-1.1977727
131	0xbf335fb1	-0.7006789
132	0xbf33fad8	-0.7030463
133	0xbf166da3	-0.5876104
134	0xbf45ea7f	-0.7731094
135	0xbed02300	-0.40651703
136	0x3c9355c8	0.01798524
137	0x3c332e06	0.010936266
138	0xbec9f309	-0.39443234
139	0xbf5fc481	-0.87409216
140	0xbf12103e	-0.57056034
141	0xbf2e2488	-0.6802449
142	0xbf525c9c	-0.8217256
143	0xbf3e0fc2	-0.74242795

encoder.encBlocks.0.conv1.bias f4 [16]
0	0x3e398bce	0.18119738
1	0xbdd17c9a	-0.10228844
2	0xbc74c2e3	-0.014939043
3	0xbba823bc	-0.005131213
4	0xbe9773e5	-0.29580608
5	0xbd0a1fd8	-0.033721775
6	0x3df890a4	0.12136963
7	0xbe8fee4f	-0.28111503
8	0x3c1010ed	0.008793098
9	0xbcb44726	-0.022006582
10	0x3dbcf6c4	0.09226754
11	0x3e0b3e42	0.13597968
12	0x3de0e39e	0.109809145
13	0x3a77618f	0.00094368396
14	0x3db34a92	0.087544575
15	0x3df2dda3	0.1185868

encoder.encBlocks.0.conv2.weight f4 [16, 16, 3, 3]
0	0x3ddbfe47	0.10741859
1	0xbcd1e0e5	-0.025619933
2	0xbe127f8b	-0.14306466
3	0x3e054736	0.13015446
4	0xbd60825d	-0.054811824
5	0xbd07ee80	-0.033186436
6	0xbe603e7b	-0.21898834
7	0xbe24f9c2	-0.161109
8	0x3ce2979e	0.027660187
9	0x3d04d4cc	0.0324295
10	0x3d917ca9	0.07103855
11	0x3ceb7a27	0.02874477
12	0x3daad0b8	0.08340591
13	0x3cc6aad2	0.024251375
14	0x3d898243	0.067142986
15	0x3c9a7cbd	0.018858308
16	0x3caa0f99	0.02075939
17	0x3d77b8ff	0.06047916
18	0xbec9c964	-0.3941146
19	0xbe7c84d7	-0.2466005
20	0xbc8a85e8	-0.016909555
21	0x3dc53d43	0.09630825
22	0x3e08c53a	0.13356486
23	0x3e8cc8e2	0.2749701
24	0x3e86feca	0.26366264
25	0x3dba98f7	0.09111207
26	0x3d6d655b	0.05795799
27	0x3da9bcc8	0.0828796
28	0x3d9bd4e4	0.07608965
29	0xbec38fcc	-0.38195646
30	0xbef1e154	-0.47242224
31	0xbf1a287e	-0.60218036
32	0xbf0b9745	-0.54527694
33	0x3e1510e0	0.14557219
34	0x3f80db2f	1.006689
35	0x3f3c4719	0.73545986
36	0xbe16b50e	-0.14717504
37	0x3e034f43	0.12823205
38	0x3f6e0702	0.92979443
39	0x3da38b78	0.07985586
40	0x3e41d8d9	0.18930377
41	0x3f313e43	0.6923563
42	0x3e427b3a	0.1899232
43	0x3efbdb34	0.49190676
44	0x3efbee43	0.49205217
45	0xbdd666a5	-0.10468797
46	0xbe267a21	-0.16257526
47	0xbdedfd7e	-0.116206154
48	0xbe74bf1d	-0.23901029
49	0xbe2155c4	-0.15755373
50	0xbe91d114	-0.28479826
51	0x3dc437dd	0.095809676
52	0x3e9de293	0.30836925
53	0x3dcdfb3b	0.10057684
54	0x3f03a290	0.51419926
55	0xbe013f30	-0.1262176
56	0xbdf9c189	-0.12195117
57	0x3ee0a9eb	0.43879637
58	0xbe8cc2ea	-0.27492458
59	0xbe3bd10c	-0.18341464
60	0x3e0d451e	0.13795897
61	0xbecc8dc4	-0.3995191
62	0xbce09dd9	-0.027419018
63	0x3d49072e	0.049079113
64	0xbd447900	-0.047966957
65	0xbd870af6	-0.065938875
66	0xbd61f3f3	-0.05516429
67	0x3d6d360e	0.05791288
68	0x3d3d6ce6	0.04624643
69	0x3b4ec480	0.0031550229
70	0x3d9f9a81	0.07793141
71	0x3d6f32f6	0.05839821
72	0xbeba0c23	-0.36337385
73	0xbf18c225	-0.5967124
74	0x3f1b7110	0.60719395
75	0xbcac2b45	-0.021016726
76	0xbe717fdd	-0.23583932
77	0x3f9e41ab	1.236379
78	0x3e3b1829	0.18270935
79	0xbe16e83c	-0.14737028
80	0x3eca3400	0.39492798
81	0xbe447577	-0.19185434
82	0xbe9a35f2	-0.30119282
83	0xbe70ba85	-0.23508652
84	0x3e509313	0.20368604
85	0x3e24bb11	0.16086985
86	0x3e3bcdc9	0.1834022
87	0xbd459a57	-0.048242893
88	0x3c02a22c	0.007973235
89	0x3d99c62a	0.075085
90	0x3ea3addc	0.31968582
91	0xbd8abbff	-0.06774139
92	0x3e0b3174	0.13593084
93	0xbd44ef2c	-0.048079655
94	0xbf109323	-0.5647451
95	0xbafd30a9	-0.001931687
96	0x3e512f2a	0.20428148
97	0xbd88af65	-0.06674079
98	0x3e89e9ed	0.26936284
99	0x3f1e9642	0.61948025
100	0x3e453a84	0.19260603
101	0x3cfbff80	0.03076148
102	0x3f014b51	0.5050555
103	0xbd7ec6e5	-0.0622014
104	0xbd1127c9	-0.035438333
105	0x3ea3f002	0.3201905
106	0xbe3c49a1	-0.18387462
107	0xbe4282ff	-0.18995284
108	0x3e03b038	0.12860191
109	0xbe22cb52	-0.15897873
110	0xbe3206b2	-0.17385367
111	0x3d7ad782	0.06124068
112	0xbf2b507a	-0.6691967
113	0xbde01324	-0.10941151
114	0x3e909d89	0.2824519
115	0xbe242803	-0.16030888
116	0x3e7a7345	0.24458034
117	0x3dabdf26	0.083921716
118	0xbd89505d	-0.06704781
119	0x3d9d45b2	0.07679309
120	0x3dd3e2c0	0.103459835
121	0x3d5d7766	0.054068945
122	0x3dcce1ac	0.10003981
123	0x3e1c4ac5	0.15262897
124	0xbcf9c1e8	-0.03048797
125	0x3dc7e17d	0.09759805
126	0x3dcc919f	0.099887125
127	0xbe90ecaa	-0.2830556
128	0x3dfa48d8	0.12220925
129	0xbdee078a	-0.11622532
130	0xbf1d04e1	-0.6133557
131	0x3b2a8316	0.0026018075
132	0x3f0c8994	0.5489743
133	0xbc623cf0	-0.013808474
134	0x3ebef20f	0.3729405
135	0x3f09e202	0.53860486
136	0x3c8f5884	0.017498262
137	0xbe31ef73	-0.17376499
138	0x3eae59a1	0.34052756
139	0xbee84910	-0.45368242
140	0xbe4fe78a	-0.20303169
141	0xbdfa9817	-0.1223604
142	0xbea98f13	-0.3311697
143	0x3d8bcf14	0.068266064
144	0x3d84f6a4	0.064923555
145	0x3d5861c4	0.05282761
146	0x3e309006	0.1724244
147	0x3e2bd20e	0.16779348
148	0x3d3f9991	0.04677731
149	0x3e295fbd	0.16540428
150	0x3ddf7a0f	0.10911953
151	0x3e10655a	0.14101163
152	0x3e0e08b7	0.13870512
153	0x3d196630	0.03745097
154	0x3d8da540	0.069162846
155	0xbc8ad5e5	-0.016947696
156	0x3c0619e3	0.008184883
157	0xbd2ec7df	-0.04267108
158	0xbd5f5940	-0.054528475
159	0xbc94b012	-0.018150363
160	0x3d7194c7	0.058979776
161	0x3b40a22a	0.0029393532
162	0x3d6fd027	0.05854812
163	0x3e3cf86b	0.18454139
164	0xbd31bf53	-0.04339535
165	0xbd549df8	-0.051908463
166	0xbd6032aa	-0.054735817
167	0xbdbef524	-0.093241006
168	0xbe86819b	-0.26270756
169	0xbde2f856	-0.110825226
170	0xbdd90863	-0.10597303
171	0x3d04cfb3	0.03242464
172	0x3df9967b	0.12186905
173	0x3e706490	0.23475862
174	0xbdc23352	-0.09482445
175	0xbd538383	-0.05163909
176	0xbe4adf27	-0.19811688
177	0x3d4ad5e9	0.049520407
178	0xbeab6ac0	-0.3347988
179	0xbe5a9b12	-0.21348217
180	0xbe25b8bb	-0.1618375
181	0x3d1041ef	0.03521913
182	0x3e14690f	0.14493202
183	0xbe8e03d8	-0.27737308
184	0xbecdaa68	-0.40169072
185	0xbd828f0a	-0.06374939
186	0xbe86f411	-0.26358083
187	0xbec5aa01	-0.38606265
188	0x3e38932b	0.1802489
189	0x3e01ec1e	0.12687728
190	0x3e82c70d	0.2554249
191	0x3e3d64f0	0.18495536
192	0x3d1ce2cc	0.038302228
193	0x3e447157	0.1918386
194	0x3e401397	0.18757473
195	0xbe9ea79f	-0.3098726
196	0xbe6e926b	-0.23298042
197	0xbe0bc73c	-0.1365022
198	0x3cd87d8a	0.02642705
199	0xbd3918de	-0.04518973
200	0x3d669fb5	0.056304652
201	0xbb9535ea	-0.004553546
202	0xbdb8bb18	-0.0902006
203	0x3bddf7f7	0.0067739445
204	0xbd0812ff	-0.03322124
205	0xbb59b770	-0.003322091
206	0x3c8c588f	0.017132072
207	0xbd8b9a1e	-0.06816505
208	0xbd4e9e48	-0.050443918
209	0x3d4f6506	0.050633453
210	0xbd7afd1e	-0.061276548
211	0x3da3ce6f	0.079983585
212	0xbba96ab0	-0.005170189
213	0xbd28750e	-0.041127257
214	0xbc868990	-0.016423017
215	0xbcbcc9c6	-0.023045432
216	0x3f4129b4	0.7545426
217	0x3ea2db30	0.31807852
218	0xbf374e05	-0.71603423
219	0x3edba39d	0.42898265
220	0x3e3e56b5	0.18587764
221	0xbe967af0	-0.2939067
222	0x3e8a6e7d	0.2703742
223	0x3ea8870d	0.32915536
224	0x3e8a2933	0.26984558
225	0xbda922b2	-0.08258571
226	0x3da59cc1	0.08086539
227	0x3c0b3fb1	0.008499072
228	0xbe0e1f2b	-0.13879077
229	0xbe699d95	-0.22814019
230	0xbe33330c	-0.17499942
231	0xbd609bee	-0.054836206
232	0xbe16946d	-0.14705057
233	0xbe1c1f1d	-0.15246244
234	0xbef62173	-0.48072395
235	0xbea50e30	-0.32237387
236	0xbeebdb3c	-0.460657
237	0xbf00a593	-0.50252646
238	0xbedcac82	-0.43100363
239	0xbf099457	-0.53741974
240	0xbf028bd0	-0.50994587
241	0xbf025c22	-0.50921834
242	0xbedf5b0b	-0.43624148
243	0xbca35129	-0.019936161
244	0xbbe051c1	-0.0068456833
245	0xbdd0a719	-0.10188121
246	0xbcff0a05	-0.031132707
247	0xbcd2eb05	-0.025746832
248	0xbc7c7ff5	-0.015411367
249	0x397a5297	0.00023872625
250	0xbde354ab	-0.111001335
251	0xbdc77cc1	-0.09740592
252	0xbf220534	-0.6328919
253	0xbf172a15	-0.5904859
254	0xbf220770	-0.632926
255	0xbf2c6d3c	-0.6735418

encoder.encBlocks.0.conv2.bias f4 [16]
0	0xbb8e3e42	-0.004340918
1	0xbd0962e6	-0.033541583
2	0xbe01e444	-0.12684733
3	0x3d1d111c	0.038346395
4	0x3dd83f7c	0.10558984
5	0x3c1e5b0c	0.009665262
6	0x3caa45cd	0.020785237
7	0x3dbc199e	0.091845736
8	0xbd9e9862	-0.077439085
9	0xbd63717f	-0.05552816
10	0x3d76450c	0.060124442
11	0x3e06f4c2	0.13179305
12	0x3c12dbef	0.008963569
13	0x3e0a4330	0.13502192
14	0xbcd8e9d0	-0.026478678
15	0xbd5cf70c	-0.05394654

encoder.encBlocks.1.conv1.weight f4 [32, 16, 3, 3]
0	0xbe6b9b40	-0.23008442
1	0x3ea3664a	0.31913978
2	0x3e235a2f	0.15952371
3	0xbe1b28da	-0.15152302
4	0xbe51aeac	-0.20476788
5	0xbeedca92	-0.4644361
6	0x3c6231ba	0.013805801
7	0x3d6a5a81	0.057215218
8	0x3ee37d15	0.44431368
9	0x3e9d0173	0.30665168
10	0x3e60ce31	0.21953656
11	0x3e6175ef	0.22017644
12	0xbdd0ade3	-0.10189416
13	0x3d015774	0.031577542
14	0x3c844a43	0.016148692
15	0x3d06f6e4	0.032950297
16	0x3eb0e326	0.345483
17	0xbdda8e04	-0.106716186
18	0x3e5c4428	0.21510375
19	0x3e159291	0.14606692
20	0x3e5f7af5	0.21824248
21	0xbeaf4965	-0.34235683
22	0xbe9358c7	-0.2877867
23	0xbef45720	-0.4772272
24	0xbed4f422	-0.4159251
25	0x3d16f79a	0.036857225
26	0x3dc73f29	0.09728844
27	0x3f4f42ae	0.8096112
28	0x3f2644ad	0.6494854
29	0x3dfe5c99	0.12420005
30	0xbeec6d88	-0.46177316
31	0xbec73b1f	-0.38912293
32	0xbf3acf05	-0.72972137
33	0x3dc1f9a4	0.09471443
34	0xbe5efa75	-0.2177523
35	0x3e770287	0.24122058
36	0xbb5a2320	-0.0033285096
37	0xbd571d4e	-0.05251818
38	0x3dad9896	0.08476369
39	0xbe7640c3	-0.24048142
40	0xbd7d957e	-0.061910145
41	0xb9f3ef9e	-0.000465271
42	0xbd3d7faa	-0.046264328
43	0x3db8c012	0.090210095
44	0x3ead6c4d	0.3387169
45	0xbdc1e127	-0.094667725
46	0xbd65ae30	-0.05607432
47	0xbd8a0eaf	-0.06741082
48	0xbe958f1c	-0.29210746
49	0xbe91062b	-0.28325018
50	0xbbf08f94	-0.0073413346
51	0xbd52faa4	-0.05150856
52	0x3d6081f1	0.05481142
53	0x3f32575f	0.6966457
54	0x3ebc7a4c	0.36812055
55	0xbe26854c	-0.16261786
56	0xbdcdc6c5	-0.10047678
57	0xbd98f536	-0.07468645
58	0xbde2c96d	-0.11073575
59	0xbe0a5e9f	-0.13512658
60	0xbd99a9fe	-0.075031266
61	0x3dfdce08	0.12392813
62	0x3e44c5e0	0.19216108
63	0x3f34cac9	0.70621926
64	0x3f4a3325	0.7898429
65	0x3e8c58fa	0.27411634
66	0xbe41dbe4	-0.18931538
67	0xbf11880c	-0.56848216
68	0xbe87e5a8	-0.265424
69	0xbeae3ea4	-0.34032166
70	0xbee9931e	-0.45620054
71	0x3e8bca15	0.27302614
72	0x3db62df1	0.088954814
73	0x3e2c9853	0.16854982
74	0x3e3c391e	0.18381163
75	0xbed40559	-0.4141033
76	0xbeade61e	-0.33964628
77	0xbee9c404	-0.4565736
78	0xbe31a115	-0.17346604
79	0x3e283673	0.1642702
80	0x3ea5e7d2	0.32403427
81	0xbdac3d48	-0.08410126
82	0x3e9a013a	0.3007906
83	0x3e509194	0.20368034
84	0x3e0aa3a0	0.1353898
85	0x3db12a5b	0.08650657
86	0xbe7ad846	-0.24496564
87	0xbd58db01	-0.052943233
88	0xbe793884	-0.24337965
89	0xbeb11863	-0.34588918
90	0x3eb00665	0.3437988
91	0xbcd6fc58	-0.026243374
92	0x3e962381	0.29323962
93	0x3e831029	0.25598267
94	0xbeb615eb	-0.35563597
95	0xbedbc522	-0.42923838
96	0xbe8a4bcc	-0.27010953
97	0xbde6cedc	-0.11269924
98	0x3ec0f87a	0.37689573
99	0x3ee49459	0.4464443
100	0x3e936591	0.28788427
101	0x3d64145d	0.055683482
102	0x3d80e76f	0.062941425
103	0xbdc10484	-0.094246894
104	0xbd961001	-0.07327271
105	0xbd42df65	-0.047576327
106	0xbd443e33	-0.04791088
107	0xbcebcf7a	-0.028785456
108	0x3e8ac330	0.2710204
109	0xbcfa345c	-0.030542545
110	0xbe3a46a5	-0.18191011
111	0xbe2c8067	-0.16845857
112	0xbea8aeee	-0.3294596
113	0xbebea667	-0.3723633
114	0xbead0bc5	-0.33798042
115	0xbce13159	-0.027489351
116	0x3e86db73	0.263393
117	0x3e9847a6	0.29742163
118	0x3e213c7b	0.15745728
119	0x3e7d1db0	0.24718356
120	0xbdf62027	-0.12017851
121	0xbd870909	-0.0659352
122	0xbc43a8f7	-0.01194214
123	0x3d8fd956	0.070238754
124	0x3ea5927f	0.3233833
125	0x3e7b6251	0.24549223
126	0x3eca9943	0.39570054
127	0x3db54aec	0.08852181
128	0x3e0e6929	0.13907303
129	0xbeb5bec6	-0.3549711
130	0xbe9e13ba	-0.30874425
131	0xbec68af6	-0.38777894
132	0xbe220d47	-0.15825377
133	0x3e9ec225	0.31007496
134	0x3e885c80	0.26633072
135	0x3e85e67c	0.26152408
136	0x3e3ad02c	0.18243474
137	0x3d9ae56e	0.075632915
138	0x3e0a8225	0.13526209
139	0xbb8ea9a3	-0.0043537184
140	0xbe604ffb	-0.2190551
141	0xbdbbba54	-0.09166399
142	0xbe641694	-0.22274238
143	0xbe8d5c2c	-0.27609384
144	0xbe6b3ba1	-0.22971965
145	0xbcc2b3e5	-0.023767421
146	0xbe917a6a	-0.28413707
147	0x3d569845	0.05239131
148	0xbd3406a6	-0.043951653
149	0xbe0cf366	-0.13764724
150	0x3d6349a4	0.05549015
151	0xbe76f87f	-0.24118231
152	0xbd3abb0d	-0.04558854
153	0x3dbbc085	0.091675796
154	0xbbaba293	-0.005237886
155	0xbe3bf9bf	-0.1835699
156	0x3e1d7493	0.15376501
157	0x3d994a86	0.07484917
158	0xbc0c5577	-0.008565298
159	0x3e519ddc	0.20470375
160	0x3e21fdd0	0.15819478
161	0xbd66f8f0	-0.05638975
162	0xbe259fc1	-0.16174223
163	0xbd8ae8a7	-0.06782656
164	0xbd29731d	-0.041369546
165	0x3dc417e0	0.09574866
166	0x3e6ebc9b	0.23314135
167	0x3d60b34d	0.054858495
168	0x3d9ea804	0.0774689
169	0x3dde5a9c	0.10857126
170	0xbdad8584	-0.08472732
171	0xbdd6db5e	-0.1049106
172	0x3d1f1e86	0.03884747
173	0xbe84b978	-0.2592275
174	0x3c33fbfb	0.01098537
175	0x3ea72756	0.32647198
176	0xbc62959c	-0.013829615
177	0x3e410fc9	0.18853678
178	0x3e61ed7c	0.2206325
179	0xbe16da37	-0.1473168
180	0x3d3ba351	0.045810048
181	0x3e22196a	0.15830007
182	0xb9f37c1e	-0.00046441046
183	0x3e8c28dc	0.27374923
184	0x3e9c36c3	0.3051053
185	0x3e41f71c	0.18941921
186	0x3c187a85	0.009306555
187	0x3e2d29ec	0.16910523
188	0x3cb71d89	0.02235295
189	0xbd2be032	-0.041961856
190	0x3d8fc144	0.07019284
191	0x3cc401ba	0.023926605
192	0x3d24c12a	0.040223278
193	0x3e37c745	0.17947109
194	0xbdf9042c	-0.12158999
195	0x3d2c271c	0.042029485
196	0xbd760a31	-0.060068313
197	0xbeb39805	-0.3507692
198	0xbc1d40a4	-0.009597931
199	0xbe99712b	-0.29969153
200	0xbe033a4c	-0.12815207
201	0x3c7c297a	0.015390748
202	0x3e39febc	0.1816358
203	0x3ea18c33	0.31552276
204	0xbe6f9991	-0.23398425
205	0xbb87ea2e	-0.0041477894
206	0x3d847c36	0.06469004
207	0x3df551e4	0.1197851
208	0xbe2ff0ec	-0.17181748
209	0xbed9a894	-0.42511427
210	0xbd834fa0	-0.06411672
211	0xbe5f6049	-0.21814074
212	0xbea1afc1	-0.31579402
213	0xbd8abd0d	-0.0677434
214	0xbd9a1a0e	-0.07524501
215	0xbd4a5417	-0.0493966
216	0xbdc28e15	-0.09499756
217	0xbd2a197c	-0.04152821
218	0xbdfe00c5	-0.124024905
219	0x3daadc53	0.08342805
220	0x3e81aaa6	0.25325507
221	0x3dc38da1	0.09548498
222	0x3d848862	0.064713255
223	0x3db9ff9b	0.09081956
224	0xbc14b0b5	-0.009075333
225	0xbd710706	-0.05884459
226	0xbe2fefb4	-0.17181283
227	0xbe3d0c6d	-0.18461771
228	0xbdbc8932	-0.092058554
229	0xbdf3b7fe	-0.11900328
230	0xbcd3b34f	-0.025842337
231	0x3d7ec25f	0.062197085
232	0xbdbe3c0e	-0.09288798
233	0xbd8a87e5	-0.06764201
234	0xbe4604cc	-0.19337767
235	0xbd54d71f	-0.051962968
236	0xbeefb04d	-0.46814194
237	0xb9703e1a	-0.00022911318
238	0x3d0552ad	0.03254955
239	0xbe0c9a1b	-0.13730662
240	0xbdbfa499	-0.093575664
241	0xbe631b50	-0.22178388
242	0xbe1da206	-0.15393838
243	0xbe25c867	-0.16189729
244	0xbe96d06e	-0.29455894
245	0xbf0f0a9a	-0.5587555
246	0xbe19730e	-0.14985296
247	0xbd4e4e71	-0.050367776
248	0xbe873820	-0.26410007
249	0xbde5ab2d	-0.1121429
250	0x3d9929f4	0.07478705
251	0xbe9f2d50	-0.31089258
252	0xbe1d2124	-0.15344673
253	0xbd2528ab	-0.040321987
254	0xbb39bc3c	-0.0028340956
255	0xb83eec43	-4.5519566e-05

encoder.encBlocks.1.conv1.bias f4 [32]
0	0xbcc1135c	-0.023568802
1	0xbe380830	-0.17971873
2	0xbeaad875	-0.3336827
3	0xbdd952c5	-0.1061149
4	0x3dec3e70	0.115353465
5	0xbe007198	-0.12543333
6	0xbe3ccf96	-0.18438563
7	0xbe5bebaf	-0.21476625
8	0xbe811ea7	-0.25218698
9	0xbe08b2b9	-0.13349427
10	0xbf13d649	-0.5774885
11	0x3e163edc	0.14672416
12	0xbdb27a9f	-0.08714794
13	0xbe2645fd	-0.16237636
14	0xbd6d6ae3	-0.057963263
15	0xbda692d8	-0.08133477
16	0x3da7c4cb	0.08191832
17	0xbc9f95e6	-0.019480657
18	0xbe67b40f	-0.2262728
19	0xbe65faf0	-0.22459006
20	0xbe131df5	-0.14366896
21	0xbd5f07ae	-0.054450683
22	0xbeb21e0e	-0.34788555
23	0xbda737f2	-0.081649676
24	0xbf438813	-0.7637951
25	0xbe38a20b	-0.18030564
26	0x3c9db87f	0.019253014
27	0xbe611382	-0.21980098
28	0xbde67cfc	-0.11254308
29	0xbf20be35	-0.6279023
30	0xbf937131	-1.1518918
31	0xbd419f27	-0.04727092

encoder.encBlocks.1.conv2.weight f4 [32, 32, 3, 3]
0	0x3eed8155	0.46387735
1	0x3e943f9e	0.28954786
2	0x3e402163	0.18762736
3	0xbd72a623	-0.05924047
4	0x3e1fb665	0.15596922
5	0xbdab34ae	-0.08359657
6	0xbe25157b	-0.16121475
7	0xbd3955c9	-0.045247827
8	0x3e229fcf	0.15881275
9	0xbd163e07	-0.036680248
10	0xbe5dd6c8	-0.21663964
11	0xbebded85	-0.37095276
12	0xbda6afa3	-0.08138969
13	0xbd60123c	-0.05470489
14	0xbc340078	-0.01098644
15	0xbdb793df	-0.08963751
16	0xbdb9e930	-0.0907768
17	0x3b157d38	0.0022810232
18	0xbeb50ee7	-0.35362932
19	0x3eeda0d2	0.4641176
20	0x3f1acc9b	0.60468453
21	0xbe88b39d	-0.26699534
22	0x3e95b52f	0.29239795
23	0x3f01e9dc	0.50747466
24	0x3da5f8fb	0.0810413
25	0xbe9f333c	-0.31093776
26	0x3c217ac6	0.009855932
27	0x3dc0aca3	0.09407928
28	0x3d99ad82	0.07503797
29	0xbe6b89ba	-0.23001757
30	0x3cefe719	0.029285
31	0xbe10c5df	-0.14137982
32	0x3db1489d	0.08656428
33	0x3da20bf5	0.07912437
34	0x3d107c7c	0.035274968
35	0x3ec205c0	0.37895012
36	0xbd34a0fa	-0.04409883
37	0xbe9027f8	-0.28155494
38	0xbddc89b3	-0.107684515
39	0xbec22c53	-0.37924442
40	0xbede1647	-0.4337637
41	0xbed06306	-0.4070055
42	0x3f0badf7	0.54562324
43	0x3e1501aa	0.14551416
44	0xbe288aba	-0.1645917
45	0xbdacc8f6	-0.08436768
46	0x3e72c98c	0.23709697
47	0xbd732c31	-0.059368316
48	0xbe444e54	-0.19170505
49	0x3d057b62	0.03258837
50	0xbe0bd014	-0.13653594
51	0x3dd4fd1c	0.10399839
52	0xbd7bc19d	-0.06146394
53	0x3dab0eda	0.08352442
54	0x3d00dd43	0.03146101
55	0xbf577e82	-0.8417741
56	0xbba06e88	-0.004895989
57	0xbdcd4e2f	-0.10024678
58	0xbf0da464	-0.55328965
59	0x3e565bb2	0.20933416
60	0xbf4c742d	-0.7986477
61	0xbded6db9	-0.115931936
62	0x3f1250e6	0.5715469
63	0x3e053b57	0.13010918
64	0x3e4dc0be	0.20093057
65	0x3d3fa38c	0.04678683
66	0xb9f06e49	-0.00045858536
67	0x3d97cb56	0.0741183
68	0xbe559621	-0.20858051
69	0x3de512f7	0.11185258
70	0x3d104c18	0.03522882
71	0xbb64fa17	-0.0034939104
72	0xbc5e10d4	-0.013553817
73	0x3da35f22	0.079771295
74	0xbe20ca7f	-0.15702246
75	0xbe49e151	-0.19714858
76	0xbd9da02d	-0.07696567
77	0xbda067cd	-0.078322984
78	0x3eac8772	0.33697087
79	0xbdbb0986	-0.09132676
80	0xbe61386a	-0.21994177
81	0xbdfb2547	-0.122629695
82	0xbe14fb75	-0.14549048
83	0xbee86cd0	-0.45395517
84	0xbe69f3ba	-0.2284688
85	0xbc486fda	-0.012233699
86	0xbe68db9a	-0.22740021
87	0xbe0bd0f4	-0.13653928
88	0xbe16187a	-0.14657775
89	0xbea71083	-0.32629785
90	0x3e820c6e	0.25400108
91	0x3dbe09a7	0.09279185
92	0x3db49223	0.08816936
93	0xbc8e0fc9	-0.017341511
94	0x3e8c05ad	0.2734808
95	0x3ebc51f8	0.36781287
96	0xbe30e558	-0.17274988
97	0x3e1791b6	0.14801678
98	0x3d29c22d	0.041444946
99	0xbe2656f1	-0.16244103
100	0xbe348bcb	-0.17631452
101	0xbe6a515d	-0.228826
102	0xbdfbf407	-0.12302404
103	0xbe35c404	-0.17750555
104	0xbbe50d09	-0.0069900793
105	0x3dd6a7c0	0.104812145
106	0xbdbfb3be	-0.09360455
107	0xbe41352c	-0.1886794
108	0x3cde1a63	0.027112192
109	0xbdacc71a	-0.08436413
110	0xbe06cc84	-0.13163954
111	0xbd68eec1	-0.05686832
112	0xbdbeef6f	-0.09323012
113	0x3dd05a38	0.10173458
114	0xbd655543	-0.055989515
115	0xbe55d355	-0.20881398
116	0x3d865e36	0.06560938
117	0xbe38f920	-0.18063784
118	0x3d472472	0.04861874
119	0x3f1310fa	0.5744778
120	0xbe04989d	-0.12948842
121	0xbe686851	-0.22696044
122	0xbeaee91c	-0.34162223
123	0x3de8d115	0.11368004
124	0xbe26fc94	-0.16307288
125	0xbe954220	-0.29152012
126	0x3e1d8675	0.15383323
127	0x3e99c67a	0.30034238
128	0x3eb0a05f	0.34497353
129	0x3e13fc99	0.14451827
130	0xbc02ad3f	-0.007975875
131	0xbdaff01b	-0.08590718
132	0x3e167f69	0.1469704
133	0xbdd46e12	-0.10372557
134	0x3d09903f	0.03358483
135	0x3e0feca6	0.14055118
136	0xbeb90f03	-0.36144266
137	0xbdb0910d	-0.08621416
138	0x3d0f41a2	0.0349747
139	0xbec642c0	-0.387228
140	0xbdd5b589	-0.10435016
141	0x3e563a43	0.20920663
142	0xbd2770cc	-0.040879056
143	0xbae7f894	-0.0017697983
144	0xbe3a55ea	-0.18196836
145	0x3ec8b7bf	0.39202687
146	0x3e2fa8b9	0.17154206
147	0xbf08e764	-0.53478074
148	0x3dd73725	0.10508565
149	0xbdde2c45	-0.108482875
150	0xbe256470	-0.16151595
151	0x3eeae8d1	0.4588075
152	0x3e1bbb69	0.1520821
153	0xbe231e61	-0.15929557
154	0xbc8a6dc9	-0.016898053
155	0x3de8276c	0.11335644
156	0xbdabad19	-0.08382625
157	0xbce1959e	-0.027537163
158	0x3e636eaf	0.22210191
159	0xbbc4d5af	-0.0060069184
160	0x3e0422e8	0.1290394
161	0x3e5ac173	0.21362858
162	0xbe428411	-0.18995692
163	0xbdf9667e	-0.12177752
164	0xbe557adb	-0.20847647
165	0xbe21879f	-0.15774392
166	0xbd775db7	-0.060392108
167	0xbd206b6f	-0.039164957
168	0x3e560771	0.20901276
169	0x3e582e0b	0.21111314
170	0x3e6454b8	0.22297943
171	0x3d5f0362	0.054446585
172	0xbed09e99	-0.40746
173	0x3d3c093c	0.045907244
174	0xbe0f3ac5	-0.13987263
175	0xbe19b989	-0.15012182
176	0xbdac69bb	-0.08418604
177	0x3efaf866	0.49017638
178	0xbe48a88f	-0.1959555
179	0xbe8863ac	-0.26638544
180	0x3e25710d	0.16156407
181	0xbe7a0bef	-0.24418615
182	0x3ef10e1e	0.47081083
183	0x3d85b612	0.06528868
184	0xbeb8f3e1	-0.36123565
185	0x3e080ce8	0.13286173
186	0x3ec23045	0.37927452
187	0xbe59cf03	-0.21270375
188	0x3d236f6a	0.039901175
189	0xbc3f7a7f	-0.01168692
190	0xbefa4d5d	-0.48887148
191	0x3e2b9dee	0.16759464
192	0xbef8a1b9	-0.48560885
193	0xbbfd5852	-0.007731476
194	0x3e8ccd93	0.2750059
195	0x3e2d24f0	0.16908622
196	0xbef19676	-0.47185105
197	0x3dd1442e	0.10218082
198	0x3e58aec3	0.21160416
199	0x3cbd019f	0.023072062
200	0x3ef832c6	0.48476237
201	0xbe398ad7	-0.1811937
202	0xbe560a1f	-0.20902298
203	0x3e1aebb2	0.15128973
204	0x3dac183f	0.08403062
205	0xbdb070a5	-0.08615235
206	0x3e369467	0.17830049
207	0x3df19f29	0.117979355
208	0xbf245306	-0.64189184
209	0xbf142760	-0.5787258
210	0x3d522d88	0.051312953
211	0xbe076b0b	-0.13224427
212	0x3e86ccfb	0.26328263
213	0xbd089f89	-0.03335527
214	0x3e4356ca	0.19076076
215	0x3ea67b4c	0.32515943
216	0x3ddf6b52	0.109091416
217	0x3cb15cab	0.021650633
218	0x3da29316	0.07938211
219	0x3c2e93ec	0.0106553845
220	0xbe5ff329	-0.21870102
221	0xbe7d5ca7	-0.24742375
222	0x3f0b0f83	0.54320544
223	0xbe08b38a	-0.13349739
224	0xbe167405	-0.14692695
225	0xbe3b27a7	-0.18276845
226	0xbe5fb4e3	-0.21846347
227	0xbdbac055	-0.09118716
228	0xba8e18b5	-0.0010841104
229	0x3e91ebe2	0.28500277
230	0x3e871329	0.26381806
231	0x3d59bf38	0.053160876
232	0x3e47db92	0.19517353
233	0x3d2f637d	0.04281949
234	0x3e23f192	0.1601012
235	0xbb94385b	-0.0045233197
236	0xbe936340	-0.2878666
237	0x3ed2c1ff	0.41163632
238	0x3df54533	0.11976089
239	0xbc37ae5e	-0.011211006
240	0xbd4acec2	-0.049513586
241	0xbe938f02	-0.28820044
242	0x3da5bf51	0.08093131
243	0x3cbe6d6e	0.02324554
244	0x3dd3326f	0.10312354
245	0x3c8a5925	0.01688821
246	0xbc565f59	-0.013084256
247	0x3dd95114	0.106111676
248	0x3c2e0d01	0.010623218
249	0xbda96f63	-0.082731985
250	0xbcd383c4	-0.025819667
251	0xbd8c0a95	-0.06837956
252	0x3f0afc4c	0.54291224
253	0xbc8e6e5c	-0.017386608
254	0x3f29b10d	0.66285783
255	0xbf2d7985	-0.6776355

encoder.encBlocks.1.conv2.bias f4 [32]
0	0x3db82565	0.089915074
1	0x3d9b7b4d	0.07591877
2	0x3e2cf415	0.16889985
3	0xbe1f39c0	-0.15549374
4	0xbd7f26a6	-0.062292717
5	0xbd0ca990	-0.034341395
6	0xbe5b436b	-0.21412437
7	0xbe0c8311	-0.13721873
8	0xbd9a119a	-0.075228885
9	0xbe0a1263	-0.13483576
10	0xbd80e77d	-0.06294153
11	0xbe105ced	-0.14097948
12	0xbd1f8e92	-0.038954325
13	0x3b9f5979	0.004862961
14	0x3c02e6ad	0.007989568
15	0x3d895c5f	0.067070715
16	0xbe882713	-0.2659231
17	0xbd9f17d4	-0.07768217
18	0xbe042c70	-0.12907577
19	0xbd805e63	-0.06268003
20	0x3e1b2480	0.15150642
21	0xbeb5973f	-0.35466954
22	0xbd8b8082	-0.0681162
23	0xbd300f0a	-0.042983092
24	0x3e26a57e	0.16274068
25	0xbe33cb63	-0.17558055
26	0xbdd55115	-0.10415856
27	0xbdb4f707	-0.08836179
28	0x3e2977e9	0.16549648
29	0x3d86acec	0.06575951
30	0xbd243fae	-0.040099792
31	0xbe68fd26	-0.22752818

encoder.encBlocks.2.conv1.weight f4 [64, 32, 3, 3]
0	0x3ca05f3d	0.019576663
1	0xbdbf6edc	-0.093473166
2	0xbe12f0b7	-0.14349638
3	0xbe42cf0f	-0.19024299
4	0xbded1ed2	-0.11578144
5	0x3cb2ba04	0.021817215
6	0x3dab24b2	0.083566085
7	0xbe0d4a0b	-0.13797776
8	0x3d3bbd7f	0.045835014
9	0xbd13025c	-0.035890922
10	0xbdce1e77	-0.100644045
11	0xbf26ee54	-0.6520741
12	0xbdf5f57f	-0.12009715
13	0xbeca5ebe	-0.39525408
14	0xbe2ff5fb	-0.17183678
15	0xbe9ed776	-0.3102376
16	0xbe89f442	-0.26944166
17	0x3d9d5828	0.0768283
18	0xbd0c843a	-0.03430579
19	0xbd257cdf	-0.04040229
20	0xbf0672f9	-0.52519184
21	0xbd53f67b	-0.051748734
22	0xbad386b9	-0.0016138173
23	0x3dcd3622	0.10020091
24	0xbd5ac51f	-0.053410646
25	0x3c3b40fa	0.011429066
26	0x3e048633	0.12941818
27	0x3d3ad07c	0.045608982
28	0x3d77252b	0.06033818
29	0xbe369a57	-0.17832313
30	0xbdcd9c79	-0.100396104
31	0xbe386e41	-0.18010809
32	0xbe261b0d	-0.16221257
33	0x3ddfe3db	0.10932132
34	0xbea7deb5	-0.327871
35	0x3e16cca4	0.14726502
36	0x3eaf640c	0.34256017
37	0x3e6cb870	0.23117232
38	0x3df4c0c6	0.11950831
39	0x3d59d438	0.053180903
40	0xbe0dd91d	-0.13852353
41	0x3e9d2b6d	0.30697194
42	0xbe9f8748	-0.311579
43	0xbd0a8d5c	-0.033826217
44	0xbd92f0f5	-0.07174865
45	0x3e7140fa	0.23559943
46	0x3daadae7	0.083425336
47	0xbe4adcb5	-0.19810756
48	0xbe054975	-0.13016303
49	0xbecb4823	-0.39703473
50	0x3df78214	0.12085357
51	0xbf0bf4d5	-0.5467046
52	0xbd729ddb	-0.059232574
53	0x3e4ec080	0.2019062
54	0x3e1146be	0.14187142
55	0xbde4db8b	-0.11174687
56	0xbee51011	-0.4473882
57	0xbdf79ce3	-0.12090471
58	0x3d835c85	0.06414131
59	0xbd8c5013	-0.068512104
60	0xbe0aaa70	-0.13541579
61	0xbd7cc6ab	-0.061712902
62	0xbc50221e	-0.012703447
63	0x3ee1cd7e	0.4410209
64	0x3c8c3e05	0.017119417
65	0xbe077e3d	-0.1323175
66	0xbcaa8835	-0.020816902
67	0xbde4d458	-0.11173314
68	0x3ebde484	0.37088406
69	0xbeac8853	-0.33697757
70	0x3ef3a818	0.47589183
71	0x3e359b55	0.17735036
72	0xbe2d65d6	-0.16933379
73	0xbe78a709	-0.24282469
74	0xbf119fad	-0.5688427
75	0x3e5855c7	0.21126471
76	0xbe57cc09	-0.21073927
77	0x3e149e98	0.14513624
78	0x3ef315c4	0.47477543
79	0xbf0ad513	-0.54231375
80	0xbe09341e	-0.13398787
81	0x3e476882	0.1947346
82	0x3e86fe7c	0.2636603
83	0x3f01da5f	0.5072383
84	0xbd6990ed	-0.057022978
85	0x3e36f4e2	0.17866853
86	0x3ee4c309	0.4468005
87	0xbe9da6cd	-0.3079132
88	0x3efbf14a	0.49207526
89	0x3e1a5bf5	0.15074141
90	0xbe58ce60	-0.21172476
91	0xbe1221d9	-0.14270724
92	0xbea93136	-0.33045357
93	0xbdfe05eb	-0.124034725
94	0x3dcad1a5	0.09903268
95	0x3e82490e	0.2544636
96	0x3dd32143	0.103090785
97	0x3ac820f6	0.0015268612
98	0x3e616ed1	0.2201493
99	0x3e42cdd2	0.19023827
100	0x3e3a7942	0.18210319
101	0xbe6b8bd9	-0.23002566
102	0xbd074056	-0.03302034
103	0xbe77d03c	-0.24200529
104	0xbf0457dd	-0.5169657
105	0xbe30f379	-0.17280377
106	0xbf60c7c5	-0.87804824
107	0xbdbe64c6	-0.09296565
108	0xbdd44cba	-0.10366197
109	0xbe000eb6	-0.12505612
110	0x3ed203ad	0.4101843
111	0x3cb0bf07	0.021575464
112	0x3e6afbb0	0.22947574
113	0x3ef88660	0.4854002
114	0xbe38f3b8	-0.18061721
115	0x3d2be93d	0.04197048
116	0x3ebb68bc	0.36603343
117	0x3d1cb2da	0.038256504
118	0xbe5e0c0f	-0.21684287
119	0xbdfece50	-0.12441695
120	0x3e47f5ae	0.19527313
121	0x3dfc0f05	0.12307552
122	0x3eb50127	0.35352442
123	0x3e1d2c59	0.15348949
124	0xbd7cb406	-0.06169512
125	0xbd46a606	-0.048498176
126	0xbcce1246	-0.025155198
127	0xbe456b53	-0.19279222
128	0xbce9fda5	-0.02856333
129	0xbdf9ebf1	-0.122032054
130	0x39995d3a	0.00029251893
131	0xbe586d0a	-0.21135345
132	0x3e8c592e	0.2741179
133	0x3e8db118	0.27674174
134	0xbcb2aba4	-0.02181036
135	0x3dc6c7e8	0.09706098
136	0x3d709378	0.058734387
137	0x3e89f0fc	0.2694167
138	0xbe23dbb8	-0.16001785
139	0xbe2caded	-0.16863222
140	0xbd8118ad	-0.06303535
141	0xbebf061c	-0.3730935
142	0x3bf2ecd9	0.0074134883
143	0xbce2aef0	-0.027671307
144	0xbee61832	-0.44940335
145	0xbe2d0078	-0.1689471
146	0xbdb8d12f	-0.090242736
147	0xbe984f79	-0.29748133
148	0xbd53f551	-0.051747624
149	0x3d99d8ae	0.075120315
150	0xbca13077	-0.01967643
151	0x3dd9bf77	0.10632222
152	0x3e4cb42b	0.19990604
153	0x3ebc3ec9	0.3676665
154	0x3e9566f1	0.291801
155	0x3dbe96e7	0.09306126
156	0xbce9bc9a	-0.028532315
157	0xbe2395c3	-0.15975098
158	0xbe549d27	-0.20763074
159	0x3d0d76b0	0.034537017
160	0xbea9f6d8	-0.3319614
161	0xbd97170e	-0.07377444
162	0x3de3303f	0.110931866
163	0xbe2a3846	-0.16623029
164	0xbf4029ad	-0.7506359
165	0xbe42c2f2	-0.19019678
166	0xbdbaaae9	-0.0911463
167	0xbe79e037	-0.24401937
168	0x3d119b4c	0.035548493
169	0xbdd8ff04	-0.10595515
170	0xbcf26cea	-0.02959295
171	0xbd02fc2a	-0.031978764
172	0xbc87addd	-0.016562397
173	0x3e134f9a	0.14385834
174	0xbddf956f	-0.10917174
175	0xbe94e054	-0.290774
176	0x3e89addf	0.26890466
177	0xbedc5c0c	-0.43038976
178	0xbe948659	-0.2900875
179	0x3cbf3bf0	0.02334401
180	0xbe672b24	-0.2257505
181	0xbe9220e5	-0.28540722
182	0xbea68475	-0.32522932
183	0xbe0cda17	-0.1375507
184	0xbe3f813c	-0.18701643
185	0xbe8d6032	-0.27612454
186	0xbeb7b177	-0.35877582
187	0xbe8406d1	-0.2578645
188	0xbe0b6cda	-0.13615742
189	0x3e2c0076	0.16797051
190	0x3dd9ddb2	0.10637988
191	0xbe869a9d	-0.26289836
192	0xbca4c533	-0.020113563
193	0xbe52576d	-0.20541163
194	0xbe48a55b	-0.19594328
195	0xbc5836b0	-0.013196632
196	0xbe99213c	-0.29908168
197	0x3d733dbe	0.059385054
198	0x3e09753b	0.13423626
199	0xbd81f4bc	-0.063455075
200	0xbec28e9b	-0.37999424
201	0x3e43c37e	0.19117543
202	0xbc23a9ab	-0.009989182
203	0x3e1160ec	0.14197129
204	0xbe451fce	-0.19250414
205	0xbf107fcf	-0.5644502
206	0xbddb0c37	-0.10695689
207	0x3ea4491e	0.32087034
208	0xbc822913	-0.015888726
209	0xbd1f2ee0	-0.038863063
210	0xbd9c9427	-0.07645445
211	0xbda9a5d0	-0.08283579
212	0x3e588736	0.21145329
213	0xbeddfb0d	-0.433556
214	0x3e02a963	0.12759928
215	0x3e26df8e	0.16296217
216	0x3d31c4f8	0.043400735
217	0xbc906c25	-0.017629692
218	0xbd49aaea	-0.049235262
219	0xbe3c2336	-0.18372807
220	0x3d36b44a	0.04460553
221	0x3dc63213	0.0967752
222	0x3ec7b22c	0.39003122
223	0x3e273c87	0.16331683
224	0x3dec4628	0.11536819
225	0x3ecb7dd6	0.39744443
226	0x3e5ebb56	0.2175115
227	0x3eb8f02a	0.3612073
228	0x3da403c7	0.08008533
229	0x3e6ae9a1	0.22940685
230	0x3f2079f9	0.62686116
231	0xbe60fc00	-0.2197113
232	0x3ea15b0e	0.31514782
233	0x3e6b3deb	0.22972839
234	0xbe006cc9	-0.12541498
235	0xbc84d302	-0.016213898
236	0x3dad9539	0.084757276
237	0xbd8fef54	-0.0702807
238	0x3de75175	0.112948336
239	0x3dbbb0a7	0.09164553
240	0xbe818f4a	-0.25304633
241	0x3e581042	0.21099952
242	0x3e35d2b7	0.17756163
243	0x3e242919	0.16031303
244	0x3dbd0157	0.09228771
245	0xbd875ce6	-0.06609516
246	0xbd54497b	-0.05182789
247	0xbdff90bc	-0.12478778
248	0x3f10473f	0.5635871
249	0xbeb8cb38	-0.36092544
250	0xbeb69db8	-0.35667205
251	0x3ee313b8	0.44350982
252	0x3e6467a8	0.22305167
253	0x3c177d19	0.009246134
254	0xbeae79bd	-0.34077254
255	0xbe579304	-0.21052176

encoder.encBlocks.2.conv1.bias f4 [64]
0	0xbeb6b1e6	-0.356826
1	0x3e601412	0.21882656
2	0xbd82fd5e	-0.06395982
3	0xbd931d4a	-0.07183321
4	0xbdb19d97	-0.08672636
5	0x3cc5ab8c	0.024129651
6	0xbce575db	-0.0280103
7	0xbdcbae9b	-0.09945413
8	0xbd212214	-0.03933914
9	0xbe4c8c54	-0.19975406
10	0xbdb87203	-0.09006121
11	0xbc136b69	-0.008997777
12	0xbeca29db	-0.39485058
13	0x3ea0ccc1	0.31406215
14	0xbe598d7f	-0.21245383
15	0xbf9b54a4	-1.2135205
16	0xbdde4098	-0.10852164
17	0xbf5fe537	-0.8745913
18	0x3cebfb09	0.028806226
19	0xbdfdf5fa	-0.12400432
20	0xbe1899fe	-0.14902493
21	0xbf52aebd	-0.8229788
22	0xbe2278e4	-0.15866429
23	0xbea03a5f	-0.31294534
24	0xbf029058	-0.510015
25	0xbe298897	-0.16556011
26	0xc024cf5a	-2.5751557
27	0x3e5a6333	0.21326904
28	0xbf871880	-1.0554352
29	0xbdd8ec7a	-0.10591979
30	0xbe0617a2	-0.13094953
31	0xbf6715f4	-0.9026787
32	0xbcbc4ac4	-0.02298487
33	0x3d4cf06a	0.050033964
34	0xbec3be19	-0.3823097
35	0xbe31a30f	-0.17347358
36	0xbe533775	-0.20626624
37	0xbec4e78b	-0.38457903
38	0xbcdc44f9	-0.026888357
39	0xbd45932d	-0.04823606
40	0x3dc399f6	0.0955085
41	0xbea10dc5	-0.31455818
42	0xbea90894	-0.33014357
43	0xbf88fd1b	-1.0702242
44	0xbe4eb0f0	-0.20184684
45	0xbb12e80a	-0.0022416138
46	0xbfc99e4d	-1.5751435
47	0xbe728c21	-0.23686267
48	0x3c36aac8	0.011149116
49	0x3c242a51	0.010019855
50	0x3c44530a	0.011982689
51	0xbfffe003	-1.9990238
52	0x3e8b9c91	0.27267888
53	0xbdccf532	-0.10007705
54	0xbdd0a489	-0.101876326
55	0xbd91749a	-0.07102318
56	0xbeba53d3	-0.36392078
57	0xbe05a2d3	-0.13050394
58	0x3e90b7d5	0.28265253
59	0x3c873816	0.016506236
60	0xbe691a8f	-0.22764038
61	0xbc624cc7	-0.01381225
62	0xbe390f07	-0.18072139
63	0xbe3627ab	-0.1778857

encoder.encBlocks.2.conv2.weight f4 [64, 64, 3, 3]
0	0x3d235e18	0.039884657
1	0xbdc7ff25	-0.09765462
2	0xbd2b5cb3	-0.04183645
3	0xbe87c3b7	-0.26516506
4	0xbdde93a9	-0.10868008
5	0x3cd6285f	0.026142297
6	0xbea1464e	-0.3149895
7	0x3d0879f1	0.033319417
8	0xbddd94d0	-0.10819399
9	0x3cb1a533	0.021685218
10	0xbdc8c4c1	-0.09803153
11	0xbe8789f3	-0.26472434
12	0xbe5bab0d	-0.2145197
13	0xbde74b35	-0.112936415
14	0x3d777adf	0.060419913
15	0xbc9da3d4	-0.019243158
16	0x3d1a5cd2	0.037686177
17	0xbe00df83	-0.12585263
18	0xbe0247ea	-0.12722746
19	0x3d3a6f8f	0.045516547
20	0x3d5ca49f	0.053867932
21	0x3d199f0f	0.037505206
22	0xbe74e5d3	-0.23915796
23	0xbd94bc00	-0.07262421
24	0xbf0b8250	-0.54495716
25	0xbce488e8	-0.027897313
26	0xbc87b2ce	-0.016564753
27	0xbd205f96	-0.039153658
28	0x3ca57d2a	0.020201284
29	0xbd59e4cc	-0.053196713
30	0xbcb9c3ce	-0.022676375
31	0xbd0395eb	-0.032125395
32	0xbceaa519	-0.028643178
33	0x3c74bce8	0.014937617
34	0x3b8f5f48	0.004375372
35	0xbce5d971	-0.028057786
36	0x3ebb8264	0.36622918
37	0xbe4c6c01	-0.19963075
38	0xbe4d159e	-0.20027778
39	0xbd52809a	-0.051392175
40	0xbe90dbce	-0.28292698
41	0x3e13ca87	0.14432727
42	0x3eeecd95	0.46641222
43	0xbeafb44b	-0.3431724
44	0xbe9551cf	-0.29163978
45	0x3eb7e1fd	0.35914603
46	0x3bf5bb67	0.0074991467
47	0xbec84b1e	-0.3911981
48	0xbcb1c961	-0.02170247
49	0xbdceebd8	-0.101035774
50	0xbebbcd8c	-0.36680257
51	0xbdccefdc	-0.10006687
52	0xbd62df53	-0.05538876
53	0x3e0d5c9d	0.1380486
54	0x3d6544b7	0.055973735
55	0xbe925743	-0.285822
56	0xbe84ad2c	-0.2591337
57	0xbdcf3be6	-0.101188466
58	0x3dd1b82a	0.10240205
59	0x3e82e41d	0.25564662
60	0xbf1ff2a9	-0.62479645
61	0x3dbc49fb	0.09193798
62	0x3e32de13	0.17467527
63	0xbcd4140d	-0.025888467
64	0xbcdd9955	-0.027050653
65	0xbf1c654a	-0.61092055
66	0xbd8ea4ee	-0.069650516
67	0x3e1d63a2	0.15370038
68	0xbe982f81	-0.29723743
69	0xbf013980	-0.50478363
70	0xbe9fdad1	-0.3122163
71	0xbe86bd71	-0.26316407
72	0x3e3c90e5	0.18414648
73	0x3ebb3dd8	0.3657062
74	0xbe80fc18	-0.25192332
75	0x3cd1f672	0.02563021
76	0x3e9b2846	0.30304164
77	0xbd2ede18	-0.042692274
78	0xbe093a59	-0.13401164
79	0x3de683ce	0.112556085
80	0xbea56f8c	-0.32311666
81	0x3ea2ae29	0.317735
82	0xbd95b151	-0.07309211
83	0xbec1faed	-0.37886754
84	0x3dc89aea	0.097951725
85	0x3e140cdb	0.14458029
86	0xbe89ffb8	-0.2695291
87	0xbe6857e5	-0.22689779
88	0xbe8c1212	-0.27357537
89	0xbe298d11	-0.16557719
90	0x3dc4f57b	0.09617134
91	0x3cedea69	0.02904244
92	0xbda6a28b	-0.08136471
93	0xbd9cbd1e	-0.07653259
94	0xbe806904	-0.2508012
95	0xbdc767d2	-0.09736599
96	0x3dc59d4b	0.09649142
97	0xbe1f751d	-0.15572019
98	0xbdc7add9	-0.09749956
99	0x3d9324c1	0.071847446
100	0x3e3054b9	0.17219819
101	0xbe59ab06	-0.21256647
102	0xbcae6955	-0.02129046
103	0x3e5e549d	0.21711965
104	0x3d814335	0.06311647
105	0x3d43b9bb	0.04778455
106	0xbe29b0ce	-0.16571352
107	0x3e978870	0.2959628
108	0x3dd8ce66	0.105862424
109	0xbc9808ed	-0.018558944
110	0x3d7195bc	0.05898069
111	0xbd585376	-0.05281397
112	0x3e697c7b	0.22801392
113	0x3e81fa40	0.25386238
114	0xbc58a86a	-0.013223747
115	0x3c9d9d03	0.019239908
116	0x3e29930c	0.1656
117	0x3e2d8b9a	0.16947785
118	0xbd831d13	-0.0640203
119	0xbdb64832	-0.08900489
120	0x3e9731f2	0.29530293
121	0xbd8128e4	-0.063066274
122	0xbde58302	-0.112066284
123	0xba1fba25	-0.00060931063
124	0x3cf16798	0.029468343
125	0xbc9beff3	-0.019035315
126	0xbd3b45c0	-0.045720816
127	0xbeca7d89	-0.395489
128	0xbf03f5b0	-0.51546764
129	0xbe50749f	-0.20356987
130	0xbd6b1925	-0.057397027
131	0xbe734d84	-0.23760039
132	0x3e7d4117	0.24731861
133	0x3ea30aa4	0.31844056
134	0x3e086186	0.13318452
135	0xbf2e0abb	-0.67985123
136	0x3e1bcee3	0.1521564
137	0x3ebd532b	0.36977515
138	0x3e2bac56	0.1676496
139	0x3ecfe29c	0.40602577
140	0x3c6e8605	0.01455832
141	0x3d8f19bb	0.069873296
142	0xbe22ea87	-0.15909778
143	0xbf1618fe	-0.58631885
144	0x3db79c61	0.08965374
145	0x3e63ebbb	0.22257893
146	0xbe400a94	-0.18754035
147	0x3e5258a2	0.20541623
148	0x3e37cc68	0.17949069
149	0xbe27c9e1	-0.16385604
150	0x3b4018ca	0.002931165
151	0xbd27f383	-0.041003715
152	0x3e67842f	0.22609018
153	0x3e436fbb	0.1908559
154	0xbd013c09	-0.031551395
155	0xbe481e50	-0.19542813
156	0xbde10146	-0.10986571
157	0x3c2f7094	0.010707993
158	0xbd6b66f9	-0.05747125
159	0xbe1ff1fe	-0.15619656
160	0x3cc6acfa	0.024252404
161	0x3e5fc617	0.21852909
162	0x3e7a5e9b	0.24450152
163	0xbf41bc6e	-0.75678146
164	0x3dab0a66	0.08351593
165	0xbe3bf63a	-0.18355647
166	0xbe1b4077	-0.1516131
167	0xbeab0e70	-0.33409452
168	0x3e23c44e	0.15992853
169	0x3e5846c8	0.21120751
170	0xbe94590d	-0.2897419
171	0x3d579949	0.05263642
172	0x3c7b6295	0.015343328
173	0x3bce50ac	0.006296238
174	0xbd00ffcd	-0.03149395
175	0xbb420d6c	-0.002961005
176	0x3d00b631	0.03142375
177	0xbce1948b	-0.027536651
178	0x3cadd646	0.021220338
179	0xbd6de9c9	-0.058084283
180	0x3da37fc7	0.07983356
181	0x3f018236	0.5058931
182	0xbd7550a6	-0.059891365
183	0xbea2f28e	-0.3182568
184	0xbecba473	-0.39773902
185	0xbd8744f1	-0.066049464
186	0xbebf8603	-0.3740693
187	0xbe893dd4	-0.26804984
188	0xbdbc4cad	-0.09194312
189	0x3c2aaf23	0.010417732
190	0x3d889c11	0.06670392
191	0x3caa88bb	0.020817151
192	0x3d419162	0.04725779
193	0x3e9f53e4	0.3111869
194	0x3e74a5e0	0.23891401
195	0x3c837ab7	0.016049726
196	0x3e62573f	0.22103594
197	0x3e4d2148	0.20032227
198	0xbe269645	-0.16268261
199	0xbe88ef5c	-0.26745117
200	0x3da99526	0.08280401
201	0x3e1be00b	0.15222184
202	0x3c5dafa5	0.013530646
203	0xbe5b91c7	-0.21442328
204	0xbdf8ca9e	-0.12148021
205	0x3db67c21	0.089103945
206	0xbe275bb0	-0.1634357
207	0xbbc33eac	-0.005958399
208	0x3e44a0c3	0.1920195
209	0x3e567953	0.20944719
210	0x3e56b42e	0.2096717
211	0x3eaaa10c	0.33325994
212	0xbcd7f344	-0.026361115
213	0xbd934ff6	-0.07192986
214	0xbdc32596	-0.09528653
215	0xbe64a045	-0.22326763
216	0x3f00ad08	0.50264025
217	0x3e43bab1	0.19114186
218	0xbe01f815	-0.12692292
219	0xbea5f7ee	-0.32415718
220	0x3e82e0fd	0.25562277
221	0x3ec8e1d0	0.3923478
222	0xbf0a3f86	-0.5400318
223	0xbe846f5b	-0.25866207
224	0x3d321d0e	0.04348474
225	0xbed4dfa8	-0.41576886
226	0xbc6a2557	-0.014291129
227	0x3c7c981c	0.015417125
228	0xbe19d484	-0.15022475
229	0x3d86dff1	0.06585682
230	0x3d9eb949	0.07750184
231	0xbe6a31ac	-0.22870511
232	0xbe0e01d9	-0.13867892
233	0x3f13950b	0.57649297
234	0xbeafbc20	-0.34323215
235	0xbddaf2e7	-0.10690861
236	0x3d0b2c2f	0.033977684
237	0x3de35db0	0.11101854
238	0x3dca9802	0.098922744
239	0xbd0cd19b	-0.034379583
240	0x3f05aceb	0.52216977
241	0x3aaf03d9	0.0013352587
242	0x3dc295cc	0.09501228
243	0x3e9d67eb	0.30743346
244	0xbe93f42f	-0.28897235
245	0xbf234e3e	-0.63791263
246	0x3eb679ad	0.35639706
247	0xbe451384	-0.19245726
248	0x3d2648d2	0.04059679
249	0x3e9e0092	0.3085981
250	0x3dcf9d39	0.1013741
251	0x3e8f5d63	0.28000936
252	0x3d905bb3	0.0704874
253	0xbdb41bdf	-0.087943785
254	0xbec04948	-0.3755591
255	0x3e0536fd	0.13009258

encoder.encBlocks.2.conv2.bias f4 [64]
0	0xbd78cc0b	-0.060741466
1	0xbe45ad52	-0.19304398
2	0x3e6020d8	0.21887529
3	0x3e8fb786	0.28069705
4	0x3b7b5d9c	0.0038355356
5	0x3cb7c0f6	0.022430878
6	0x3ea8ca48	0.32966828
7	0x3dd0833f	0.10181283
8	0x3db3c6bf	0.08778142
9	0x3e88067c	0.26567447
10	0xbd960759	-0.0732562
11	0x3ea19584	0.31559384
12	0xbdfa16af	-0.12211358
13	0xbe993280	-0.2992134
14	0xbdb6bfc7	-0.089232974
15	0x3e7a15fa	0.24422446
16	0xbc4a0c1c	-0.012331989
17	0xbe43989b	-0.19101183
18	0x3c843bc8	0.016141787
19	0x3dc4f326	0.096166894
20	0x3e5f9409	0.21833815
21	0x3e64f0f0	0.22357535
22	0x3ca99284	0.020699747
23	0xbd4af3af	-0.0495488
24	0x3ce0cbb2	0.02744088
25	0xbe998f39	-0.29992083
26	0xbdb2df65	-0.087340154
27	0xbd73bfef	-0.059509214
28	0xbc5d2f5d	-0.013500062
29	0xbd49d8c9	-0.049279008
30	0xbd131abe	-0.035914175
31	0x3ebc751f	0.36808106
32	0x3e012c62	0.12614587
33	0xbe179b1c	-0.14805263
34	0x3de6b355	0.112646736
35	0xbdb6db5b	-0.089285575
36	0xbeb96139	-0.36206988
37	0x3e314f4f	0.1731541
38	0x3dd0d34d	0.101965524
39	0xbdbf460e	-0.09339534
40	0x3d3440b7	0.04400703
41	0x3e8264fb	0.25467667
42	0xbd8b1a4b	-0.06792124
43	0xbc7e21ae	-0.01551096
44	0xbe9ffffe	-0.31249994
45	0xbdc0b1f0	-0.09408939
46	0xbd5523ad	-0.052035976
47	0x3e708134	0.23486787
48	0x3b8adf75	0.004238064
49	0xbdf29125	-0.1184409
50	0x3ebb5e0a	0.36595184
51	0x3f5b4e4a	0.85666335
52	0xbda1837a	-0.07886405
53	0x3e9600bd	0.29297438
54	0xbe33e91c	-0.17569393
55	0x3dd63bec	0.10460648
56	0x3e1976ba	0.14986697
57	0xbc972792	-0.018451486
58	0x3e5715f9	0.21004476
59	0xbe915e24	-0.28392136
60	0xbe5fb8e6	-0.21847877
61	0x3d0b03cd	0.03393917
62	0xbe85240d	-0.26004067
63	0x3e1a4528	0.15065444

decoder.upconvs.0.weight f4 [64, 32, 2, 2]
0	0x3e78880e	0.2427065
1	0x3d8d4779	0.06898398
2	0x3e53c96a	0.20682302
3	0x3da58904	0.08082774
4	0xbca2a22a	-0.019852716
5	0x3d8bec1e	0.06832145
6	0xbdd18f78	-0.102324426
7	0x3be1f206	0.0068953065
8	0xbb66923e	-0.0035182382
9	0xbe13f680	-0.14449501
10	0xbc4a8ca4	-0.012362633
11	0x3cf8c772	0.03036854
12	0xbe5ed9cd	-0.21762772
13	0xbd24179c	-0.04006158
14	0x3d844038	0.06457561
15	0xbd461531	-0.048360053
16	0xbe8f21b6	-0.27955407
17	0xbe9b48c9	-0.30328968
18	0x3d0b7d4c	0.03405504
19	0x3e893cb9	0.2680414
20	0xbd5dd38a	-0.054156817
21	0x3e1bb795	0.1520675
22	0x3bb0e251	0.005398073
23	0xbd6e22f6	-0.05813881
24	0xbd341b88	-0.04397157
25	0x3e847366	0.25869292
26	0xbdb98742	-0.090590015
27	0xbd4b84f7	-0.049687352
28	0xbd440d41	-0.047864202
29	0xbe6dd828	-0.23226988
30	0x3ea02898	0.3128097
31	0x3de3629b	0.11102792
32	0x3dad4116	0.0845968
33	0x3d95d388	0.07315737
34	0x3dd3b41a	0.10337086
35	0xbd352be8	-0.044231325
36	0x3e5971b8	0.21234787
37	0x3c98b4a1	0.018640818
38	0x3e2fcf8a	0.17169014
39	0x3e8a18a4	0.26971924
40	0x3d3b7eea	0.04577533
41	0x3d2da329	0.04239193
42	0xbe9a80ff	-0.3017654
43	0x3cc0c052	0.023529205
44	0xbe09394e	-0.13400766
45	0xbe5f5ebe	-0.21813485
46	0x3d816b05	0.063192405
47	0xbcc9d246	-0.024636399
48	0x3cbdfc04	0.02319146
49	0xbe377274	-0.17914754
50	0x3e299669	0.16561283
51	0xbd818ea2	-0.06326033
52	0x3d8c1168	0.068392575
53	0xbea44107	-0.32080862
54	0xbdaf528e	-0.08560668
55	0x3ddfeca7	0.1093381
56	0x3d66b683	0.0563264
57	0xbde9a827	-0.11409026
58	0x3e1afdcd	0.1513588
59	0xbdb0fc9c	-0.086419314
60	0xbd149342	-0.03627325
61	0xbd28d667	-0.041220095
62	0x3e3841f9	0.17993917
63	0x3e37dc53	0.17955141
64	0xbd6216c4	-0.055197492
65	0xbc4dee17	-0.012568972
66	0x3d9dec39	0.077110715
67	0x3e2c50f3	0.16827755
68	0xbe8ce8ed	-0.27521458
69	0xbe7bdb8e	-0.24595472
70	0xbe0afae5	-0.13572271
71	0x3d7b0d5d	0.06129204
72	0xbe99eac5	-0.30061927
73	0x3e82f185	0.2557489
74	0xbdb106f8	-0.08643907
75	0x3e13821b	0.144051
76	0xbd9bcdf2	-0.0760764
77	0x3dcb8d89	0.09939105
78	0x3d63718b	0.055528205
79	0xbdba80dd	-0.0910661
80	0xbde4cfcf	-0.11172449
81	0x3e0130a0	0.12616205
82	0x3e321429	0.17390503
83	0xbe85a68d	-0.2610363
84	0xbd9cfc09	-0.076652594
85	0x3e26b35c	0.16279358
86	0x3e0b81e8	0.13623774
87	0xbe82d39d	-0.25552073
88	0x3e02a53c	0.12758344
89	0x3d2db812	0.04241187
90	0x3e655ea7	0.22399388
91	0xbd94bb68	-0.072623074
92	0xbd026a97	-0.031839933
93	0x3e042842	0.12905982
94	0x3c614216	0.013748666
95	0xbe933fc7	-0.28759596
96	0xbb76d4a9	-0.0037663376
97	0x3b24f201	0.002516866
98	0xbe30a3c9	-0.17249979
99	0x3dffd28f	0.12491333
100	0xbda472ed	-0.08029733
101	0x3d21cc96	0.03950175
102	0x3da327ea	0.079665974
103	0xbe60fb03	-0.21970753
104	0xbe37ee6f	-0.17962049
105	0x3d116b7e	0.035502903
106	0x3e14778e	0.14498731
107	0x3dc104c3	0.09424736
108	0x3e917671	0.28410676
109	0x3e258463	0.16163783
110	0x3d5ed318	0.054400533
111	0x3db85be2	0.090019
112	0x3d770e48	0.060316354
113	0xbdae9c36	-0.085258886
114	0xbe997f2f	-0.29979846
115	0x3d65ef66	0.05613651
116	0x3dc2132b	0.09476312
117	0xbe33e46a	-0.17567602
118	0x3c813b0f	0.015775232
119	0xbd8d5555	-0.069010414
120	0x3d5a61cc	0.053315923
121	0x3c546c71	0.012965308
122	0xbb982952	-0.0046435976
123	0xbcb4b47b	-0.022058716
124	0xbd1b6037	-0.037933555
125	0x3dc6d7fa	0.09709163
126	0xbd890edf	-0.066922896
127	0xbcb5c963	-0.022190755
128	0xbe8e887a	-0.27838498
129	0xbd7efb82	-0.062251575
130	0xbd26320b	-0.04057507
131	0xbe0813e7	-0.13288842
132	0xbcd780d6	-0.026306551
133	0x3d406738	0.046973437
134	0x3e881b3c	0.26583278
135	0x3e4573e5	0.19282492
136	0xbe06f265	-0.13178404
137	0xbdd6d59a	-0.1048996
138	0x3e30c579	0.1726283
139	0x3db45eef	0.0880717
140	0xbe4ff524	-0.20308357
141	0xbd732b67	-0.059367564
142	0xbe3eeff2	-0.1864622
143	0x3e714615	0.2356189
144	0x3e10ecb5	0.14152797
145	0x3ddd516c	0.108065456
146	0x3deabec9	0.11462171
147	0x3a8990c6	0.0010495416
148	0x3e84484a	0.25836402
149	0x3dea5761	0.114424475
150	0xbd62e405	-0.055393238
151	0x3e4c7a9e	0.1996865
152	0x3d6bd690	0.05757767
153	0xbe9d1a5c	-0.30684173
154	0x3e6dbe8e	0.23217222
155	0xbda9cbb6	-0.08290808
156	0xbd6f18a3	-0.058373105
157	0x3d897a0f	0.06712734
158	0x3df77cae	0.12084328
159	0xbd749ed9	-0.0597218
160	0xbd7104cd	-0.05884247
161	0xbe182ef6	-0.14861664
162	0x3e2ea245	0.17054088
163	0xbc6fc67a	-0.014634723
164	0x3e0e2c3f	0.13884066
165	0xbbbe748f	-0.0058122347
166	0x3ca9e40c	0.020738624
167	0x3c44b3f3	0.012005794
168	0xbdf939d6	-0.121692345
169	0xbe8a1453	-0.2696863
170	0xbcff7c18	-0.031187102
171	0xbd3f117c	-0.046647534
172	0xbcc4e044	-0.02403272
173	0xbdbaeaf8	-0.09126848
174	0x3e22ba33	0.15891342
175	0x3c9a9b2a	0.018872816
176	0x3e6e5e93	0.23278265
177	0x3e32d2f2	0.17463282
178	0x3ddb84ea	0.10718711
179	0xbd5a5cc4	-0.053311124
180	0x3e03daf0	0.12876487
181	0xbd788285	-0.060671348
182	0xbdaf5ecd	-0.08563004
183	0x3e38fe9a	0.18065873
184	0xbd1ab8a9	-0.037773762
185	0x3d7c1564	0.061543837
186	0xbe85bb8e	-0.26119655
187	0xbe8a7c8b	-0.27048144
188	0xbd97d044	-0.074127704
189	0xbd185c78	-0.03719756
190	0xbda1fab7	-0.07909148
191	0xbd2af675	-0.041738946
192	0x3cc4d141	0.024025561
193	0xbd2c7657	-0.042105045
194	0x3e270778	0.16311443
195	0xbe79a65d	-0.24379869
196	0xbd83ebc9	-0.06441457
197	0x3d2b23c5	0.04178216
198	0xbe18b4ee	-0.14912769
199	0xbddb8b5b	-0.10719939
200	0x3e0427c5	0.12905796
201	0xbda30b3d	-0.07961128
202	0x36440470	2.920886e-06
203	0x3d9b3cb0	0.075799346
204	0x3d56b4c9	0.052418504
205	0xbcc55f94	-0.024093427
206	0x3d3f2d1b	0.046673875
207	0xbe2bae7f	-0.16765784
208	0x3d50d759	0.05098662
209	0x3d3e2a4a	0.04642705
210	0x3d623ff0	0.055236757
211	0x3d9aacd7	0.07552498
212	0xbe388f51	-0.18023421
213	0xbca03fbb	-0.019561639
214	0xbe10871b	-0.14114039
215	0xbe8ec58f	-0.278851
216	0x3d4da4cb	0.050205987
217	0xbe27ae7f	-0.16375159
218	0xbd853fcd	-0.0650631
219	0xbdb98000	-0.09057617
220	0xbdd7b0e0	-0.10531783
221	0xb95ca90c	-0.0002104381
222	0x3e2f5c04	0.17124945
223	0xbe11cf99	-0.14239348
224	0xbd26a006	-0.040679954
225	0xbd872f51	-0.06600822
226	0x3d39206a	0.045196928
227	0x3ba4f9e2	0.005034671
228	0x3e23847d	0.15968509
229	0xbd60605f	-0.054779407
230	0x3e7f1a86	0.24912462
231	0x3dc55e61	0.09637142
232	0xbddd54e2	-0.10807206
233	0x3d0f91da	0.035051204
234	0xbe884d2c	-0.26621377
235	0xbd23cb10	-0.039988577
236	0x3d82380f	0.063583486
237	0x3e92c394	0.2866484
238	0xbd74db0a	-0.059779204
239	0xbdeb1075	-0.11477748
240	0xbbd22ace	-0.006413794
241	0xbc4abee3	-0.0123746125
242	0xbe650b3c	-0.22367567
243	0x3dfbb076	0.12289517
244	0xbdf3a53d	-0.11896751
245	0x3d094668	0.03351441
246	0x3e59d7ef	0.21273778
247	0x3e934cc3	0.28769502
248	0xbe4f946f	-0.20271467
249	0xbd958e63	-0.07302549
250	0xbd96ee56	-0.07369678
251	0x3c479303	0.012181046
252	0x3d8c9472	0.06864251
253	0x3dde2f8f	0.10848915
254	0x3d4d2feb	0.050094526
255	0x3d985a85	0.0743914
