cellmatching/cellmatching/model_dicts/cell-mask-U-Net-best.pt (torch, 475799 bytes, 25 tensors)

encoder.encBlocks.0.conv1.weight f4 [16, 1, 3, 3]
0	0xbe1f3bb0	-0.15550113
1	0x3e8303db	0.2558888
2	0x3e922dd8	0.285506
3	0x3e30c8ed	0.17264147
4	0x3d64ef67	0.055892374
5	0xbe04e5e5	-0.12978323
6	0x3e6ec4df	0.23317288
7	0x3df1e020	0.118103266
8	0xbe6b0373	-0.22950535
9	0xbe29a366	-0.16566238
10	0x3bd939a8	0.0066291876
11	0xbe8ebd69	-0.27878883
12	0x3e2c1ee1	0.16808654
13	0xbeb34fdd	-0.35021868
14	0xbd95fa49	-0.07323129
15	0x3eced108	0.40393853
16	0xbd2c6b75	-0.042094667
17	0xbdd10673	-0.10206308
18	0x3e3b4ce7	0.18291055
19	0xbe04bd68	-0.12962878
20	0xbe47ef41	-0.19524862
21	0x3e789a64	0.24277645
22	0x3e0fc078	0.14038265
23	0xbc8feeb7	-0.017569883
24	0x3ea1c559	0.31595877
25	0xbdf69b11	-0.12041295
26	0xbe881f7c	-0.2658652
27	0xbe4db9c1	-0.2009039
28	0x3e9324c6	0.28738993
29	0x3da00cde	0.07814954
30	0x3e4ce010	0.20007348
31	0xbecfc7eb	-0.40582213
32	0xbe16179d	-0.14657445
33	0x3e17dba1	0.14829876
34	0xbe720c7c	-0.23637575
35	0x3e822f8c	0.254269
36	0x3e7dfe23	0.24803977
37	0x3e9e07b0	0.3086524
38	0x3dc95270	0.09830177
39	0xbd482c5a	-0.048870422
40	0x3e362be8	0.17790186
41	0x3cf39b0f	0.029737024
42	0x3c0a8581	0.008454681
43	0x3d516e96	0.051130854
44	0xbe80aa8c	-0.25130117
45	0x3d465c12	0.04842765
46	0x3bac3097	0.005254816
47	0x3dacfefd	0.08447073
48	0xbe90ec8e	-0.28305477
49	0x3e47a224	0.19495445
50	0x3e7d807d	0.24756046
51	0xbe466ede	-0.1937823
52	0xbe88a301	-0.26686862
53	0xbe3a487e	-0.18191716
54	0xbe4c40f5	-0.19946654
55	0xbda864f4	-0.0822238
56	0xbde10be3	-0.10988595
57	0xbe834455	-0.2563807
58	0x3bec4b31	0.007211112
59	0x3d007e51	0.031370465
60	0xbc162d7d	-0.009166119
61	0x3ea9d507	0.3317034
62	0xbdc5d9ba	-0.09660669
63	0xbe21446d	-0.15748759
64	0x3b896121	0.004192487
65	0x3de51015	0.11184708
66	0xbe3f74c2	-0.18696883
67	0xbe8065dc	-0.25077713
68	0x3d5a0169	0.053224
69	0x3c842f6f	0.0161359
70	0x3d862d7e	0.06551646
71	0x3dc3c850	0.09559691
72	0xbe325e58	-0.17418802
73	0x3e3edc9b	0.18638842
74	0xbe3070cc	-0.17230529
75	0x3e0f4c4b	0.13993947
76	0x3eb4068d	0.35161248
77	0xbe0f7b59	-0.14011897
78	0x3de9f4fa	0.11423679
79	0x3e72e8f0	0.23721671
80	0x3eb9ee97	0.36314842
81	0xbe5b67d4	-0.21426326
82	0x3cb6b874	0.022304751
83	0xbce08388	-0.027406469
84	0x3d98f9cb	0.07469519
85	0x3dd8325a	0.10556479
86	0xbe37637a	-0.17909041
87	0x3ea903ec	0.33010805
88	0xbcfa9145	-0.030586848
89	0xbe8cd872	-0.27508885
90	0x3dd3fcde	0.10350965
91	0x3cf946b7	0.030429227
92	0x3e6661db	0.22498266
93	0x3d2dfb16	0.042475782
94	0xbed07757	-0.4071605
95	0xbeb01710	-0.34392595
96	0x3c90acd5	0.017660538
97	0x3d8d9c05	0.06914524
98	0xbbd90001	-0.006622315
99	0x3e99aca7	0.30014536
100	0xbb4b29dc	-0.0031000292
101	0x3d34c321	0.044131402
102	0xbe8dfae3	-0.27730474
103	0xbecffff6	-0.4062497
104	0x3dabea3c	0.08394286
105	0x3e7cd490	0.24690461
106	0x3da72d78	0.08162969
107	0x3dba0441	0.090828426
108	0xbeab14e8	-0.33414388
109	0xbdc322a7	-0.09528094
110	0x3e46c75c	0.19411987
111	0x3e8fa416	0.28054875
112	0xbd894af0	-0.06703746
113	0x3d274fcb	0.04084758
114	0x3d734b35	0.059397895
115	0x3eb49680	0.35271072
116	0x3cd0ac9e	0.025472935
117	0x3dfcf589	0.123515196
118	0xbcdcfc88	-0.026975885
119	0xbe3a968d	-0.18221493
120	0x3ea5fb6f	0.3241839
121	0xbea80453	-0.328158
122	0xbe91fb56	-0.28512067
123	0xbe2a7db7	-0.16649519
124	0xbe43c274	-0.19117147
125	0x3e5cf7ab	0.21578853
126	0xbe624aff	-0.22098921
127	0x3e48725a	0.19574872
128	0x3e65ca64	0.22440487
129	0xbe90dd42	-0.28293806
130	0x3e8d33f2	0.27578694
131	0x3e65a671	0.22426774
132	0xbe6dcc06	-0.2322236
133	0x3e1d6071	0.1536882
134	0xbe8adc19	-0.27121046
135	0xbe5c279b	-0.21499483
136	0xbe3fd26c	-0.18732613
137	0x3db28aa9	0.087178536
138	0xbe92b1a1	-0.28651145
139	0xbec58185	-0.38575378
140	0xbe63072e	-0.22170708
141	0xbea22bb1	-0.3167396
142	0xbebf218f	-0.3733029
143	0x3e2ae3e2	0.16688493

encoder.encBlocks.0.conv1.bias f4 [16]
0	0xbdcfa38d	-0.10138617
1	0xbecbe2c9	-0.3982146
2	0xbe9e1e7d	-0.30882636
3	0x3e799ca5	0.24376161
4	0xbe1f0473	-0.15529041
5	0xbe12adfd	-0.14324184
6	0x3dfdf09e	0.1239941
7	0x3e33d798	0.17562711
8	0x3e7d25f1	0.24721505
9	0x3cff9278	0.031197771
10	0x3de517dd	0.11186192
11	0x3eb944fe	0.3618545
12	0xbe1facee	-0.15593311
13	0x3e12602d	0.142945
14	0xbdf6f310	-0.12058079
15	0xbee45878	-0.44598746

encoder.encBlocks.0.conv2.weight f4 [16, 16, 3, 3]
0	0xbdf533a0	-0.11972737
1	0x3d239b1e	0.039942853
2	0xbcf02f01	-0.029319288
3	0x3e2a40ae	0.16626236
4	0x3db7fa1d	0.08983252
5	0xbd7119de	-0.05886256
6	0x3d777880	0.060417652
7	0xbd0aa8a2	-0.033852227
8	0xbd6969d2	-0.056985684
9	0xbda327b3	-0.079665564
10	0x3dd4a494	0.10382953
11	0xbc77625f	-0.015099137
12	0xbd90454a	-0.07044466
13	0xbde44e81	-0.11147786
14	0xbcf3f636	-0.029780488
15	0x3be25fa0	0.006908372
16	0xbe086220	-0.13318682
17	0xbe1fec04	-0.15617377
18	0xbd694dc2	-0.05695892
19	0x3d9ca45b	0.07648536
20	0x3dd9e2da	0.106389716
21	0x3da7de57	0.08196705
22	0x3e29e2fe	0.16590497
23	0x3deb3f69	0.11486704
24	0x3c1770df	0.009243219
25	0xbd250ab4	-0.04029341
26	0x3dc7a006	0.09747319
27	0xbdcf6996	-0.10127561
28	0xbe2a3bad	-0.16624327
29	0x3e80ae89	0.2513316
30	0xbd382001	-0.044952396
31	0xbe6fda64	-0.23423153
32	0xbd3f34ec	-0.04668133
33	0x3e2f7f13	0.17138319
34	0xbbd76a5b	-0.006573958
35	0xbe606fe9	-0.2191769
36	0xbd14f7ad	-0.036369015
37	0x3d1a6e73	0.03770299
38	0x3d2c4b53	0.042064022
39	0x3cac303f	0.0210191
40	0x3dcc5c33	0.09978523
41	0x3ca125c3	0.019671327
42	0x3e269dfd	0.16271205
43	0x3e165afc	0.14683145
44	0x3d9f0d6d	0.07766233
45	0x3dcb6f62	0.09933354
46	0xbdd0e3e5	-0.101997174
47	0xbe10458a	-0.14089027
48	0x3b892b88	0.0041860975
49	0x3c4fe7d7	0.012689552
50	0xbc30ce09	-0.01079131
51	0x3cfbd8d5	0.030743042
52	0x3d7d5ecb	0.06185798
53	0x3d91161e	0.07084297
54	0x3d49e12d	0.04928701
55	0xb9874170	-0.0002579796
56	0x3cc419c8	0.023938075
57	0x3cccd08c	0.025001787
58	0xbcb548ab	-0.022129377
59	0xbd9a83ea	-0.07544692
60	0x3e0a9bf4	0.13536054
61	0x3d313972	0.043267675
62	0xbdab5730	-0.08366239
63	0xbc178fc9	-0.00925059
64	0xbd8692a7	-0.065709405
65	0x3d910439	0.070808835
66	0x3d861180	0.065463066
67	0xbc8d66a7	-0.017260863
68	0xbd2ef435	-0.042713363
69	0x3dae7470	0.085183024
70	0xbd31f8c4	-0.043450132
71	0x3d1f9771	0.038962785
72	0x3e105240	0.14093876
73	0x3d57073c	0.052497134
74	0xbdd41bca	-0.10356863
75	0x3da4797a	0.08030982
76	0x3dcdf4f7	0.10056489
77	0xbd25363c	-0.040334925
78	0xbda90dd8	-0.082545936
79	0xbd04bd83	-0.032407295
80	0xbdae3049	-0.085053034
81	0xbd8c33b9	-0.06845803
82	0x3d0421fc	0.032258973
83	0x3db8ad2d	0.09017406
84	0x3cb720d4	0.02235452
85	0x3d5d6d5a	0.054059364
86	0xbd8e3eb3	-0.06945553
87	0xbd1b32c2	-0.037890203
88	0xbdb7f8dc	-0.08983013
89	0xbd5b919a	-0.053605653
90	0xbe2a6606	-0.16640481
91	0x3ca9b6e2	0.020717088
92	0x3d8e1854	0.06938234
93	0xbdd0dfb8	-0.10198921
94	0xbcfed13c	-0.03110563
95	0x3d1d4e66	0.038404845
96	0x3d9ae03d	0.07562301
97	0x3d761dd7	0.06008705
98	0xbda09883	-0.07841589
99	0x3d1aeee1	0.03782547
100	0xbdb0098d	-0.08595572
101	0xbd889d4d	-0.06670628
102	0x3d5c551a	0.053792097
103	0xbdc1b9a7	-0.094592385
104	0xbe206ac1	-0.15665723
105	0xbe10f164	-0.14154583
106	0xbc550cf2	-0.013003575
107	0x3d119712	0.035544463
108	0x3d9e4e6d	0.07729802
109	0x3dab6d49	0.08370454
110	0x3d4062f2	0.04696936
111	0xbce91e01	-0.02845669
112	0x3d135649	0.03597096
113	0x3c4a6236	0.012352517
114	0x3d28a734	0.041175082
115	0x3cb08fcc	0.021552943
116	0xbe3bc225	-0.18335779
117	0xbd95c3dd	-0.073127486
118	0xbd26aea7	-0.040693905
119	0xbd0323a9	-0.03201643
120	0xbd54e4a5	-0.051975865
121	0xbd03ab1b	-0.0321456
122	0x3de50610	0.11182797
123	0xbc107f62	-0.008819433
124	0xbd5424d0	-0.05179292
125	0x3cfe0a09	0.031010645
126	0x3d8adeb7	0.06780761
127	0x3db7aa33	0.0896801
128	0xbd1d76bf	-0.038443323
129	0x3e1dce4e	0.1541073
130	0xbb82c6ba	-0.003990975
131	0xbb412b94	-0.0029475437
132	0x3d83038d	0.06397162
133	0xbd62bf41	-0.055358175
134	0xbd9908be	-0.074723706
135	0xbcf7fa34	-0.030270673
136	0xbcbcf931	-0.023068042
137	0x3d0997d9	0.03359208
138	0x3dbb5fc2	0.09149124
139	0xbc81bd05	-0.015837202
140	0x3d561f41	0.0522759
141	0xbc3eacae	-0.01163785
142	0x3d6ce01f	0.057830926
143	0xbda6cdc3	-0.08144715
144	0x3da69c0b	0.081352316
145	0xbdb5bf3a	-0.08874364
146	0xbd958de1	-0.07302452
147	0x3ded1c0e	0.11577617
148	0xbd3c4884	-0.045967594
149	0xbc942d9c	-0.018088154
150	0xbe1f2bf9	-0.15544118
151	0xbda5e172	-0.08099641
152	0x3d40eaca	0.047098912
153	0x3989d2b2	0.00026287657
154	0xbd606c82	-0.05479098
155	0xbe32880e	-0.17434713
156	0x3e327932	0.17429045
157	0x3e580007	0.2109376
158	0xbdaf5cea	-0.08562644
159	0x3d0f51cb	0.034990113
160	0x3e853d70	0.26023436
161	0x3e56c97e	0.209753
162	0x3e85934e	0.26088947
163	0x3d4d3078	0.05009505
164	0xbe0893ab	-0.13337581
165	0x3d39f6b6	0.045401298
166	0xbd4fe2bb	-0.050753336
167	0xbe9e360c	-0.3090061
168	0x3e3c0917	0.18362843
169	0xbdb648c6	-0.08900599
170	0xbdde3c42	-0.10851337
171	0xbe4a6e26	-0.19768581
172	0x3e339edc	0.17541069
173	0xbd978f76	-0.0740041
174	0x3eced4ee	0.40396827
175	0x3f0fcda7	0.56173176
176	0x3ce17644	0.027522214
177	0xbe3ff196	-0.18744501
178	0xbd95bfee	-0.07311998
179	0x3ce6c635	0.028170684
180	0x3e3619ef	0.1778333
181	0x3e067ee5	0.13134344
182	0x3dc6d71a	0.09708996
183	0x3da24ae8	0.079244435
184	0xbdf592f3	-0.11990919
185	0xbdd21855	-0.10258547
186	0xbd2cb0c4	-0.042160764
187	0xbdcfec34	-0.10152474
188	0xbd36efd6	-0.04466232
189	0x3c697e04	0.014251236
190	0x3e48570d	0.19564457
191	0x3df9db5a	0.12200041
192	0xbe422a54	-0.1896146
193	0xbcaf1687	-0.021373047
194	0x3da2fd90	0.079585195
195	0xb993b83a	-0.00028175284
196	0xbd91800a	-0.071045
197	0xbd2be02b	-0.04196183
198	0xbb943f40	-0.0045241416
199	0xbe327c40	-0.1743021
200	0xbdd29f77	-0.10284322
201	0xbd3cb2df	-0.046069022
202	0x3d805187	0.0626555
203	0x3d795c01	0.060878757
204	0x3e04fe0c	0.12987536
205	0x3e4d9a66	0.2007843
206	0x3e0f1094	0.13971168
207	0xbd190d8a	-0.037366427
208	0x3b949031	0.0045337905
209	0xbc8024ce	-0.01564255
210	0x3d0b5391	0.034015242
211	0x3df67677	0.12034314
212	0x3eb1ee6f	0.34752223
213	0xba57dcbc	-0.0008234491
214	0x3d7591be	0.059953444
215	0x3e8086ec	0.25102937
216	0xbc950054	-0.018188633
217	0xbdee9116	-0.11648767
218	0xbdc6c89b	-0.09706231
219	0x3c4be4c3	0.012444678
220	0xbd99664f	-0.07490217
221	0x3bece19f	0.0072290446
222	0x3b8397df	0.004015907
223	0xbab96299	-0.0014143764
224	0xbd1ef8a2	-0.038811333
225	0x3e3a938a	0.18220344
226	0x3cd98bb8	0.02655588
227	0xbe42d1fc	-0.19025415
228	0x3be5a6e5	0.007008421
229	0xbd68b267	-0.056810763
230	0xbe3e8cdd	-0.18608423
231	0xbd4e52e7	-0.05037203
232	0xbd06511c	-0.032792196
233	0x3dc04ec7	0.093900256
234	0x3d81ee09	0.0634423
235	0x3de7cef1	0.11318768
236	0xbd88e705	-0.066846885
237	0x3ebd3a66	0.36958617
238	0x3ed022db	0.40651593
239	0x3d88ec0c	0.06685647
240	0xbdf33376	-0.1187505
241	0xbde3c7d0	-0.111220956
242	0xbdc9040a	-0.098152235
243	0xbca6b717	-0.020350976
244	0xbd6879e7	-0.05675688
245	0xbd5ee72f	-0.054419693
246	0x3dd12715	0.102125324
247	0x3ea391a4	0.31947052
248	0x3e0dd096	0.138491
249	0x3c17e03d	0.009269771
250	0x3d3483f7	0.044071164
251	0x3d929c22	0.07158686
252	0xbdf3a8d7	-0.11897438
253	0xbe04d5ab	-0.12972133
254	0xbd976fc0	-0.073943615
255	0xbcab5ada	-0.020917345

encoder.encBlocks.0.conv2.bias f4 [16]
0	0xbe04863f	-0.12941836
1	0x3df46929	0.1193412
2	0xbd054fbe	-0.03254675
3	0xbdc410ac	-0.095734924
4	0x3e8ea3f6	0.27859467
5	0x3d9a55b1	0.075358756
6	0x3d604c3e	0.05476021
7	0xbdbafa2b	-0.09129747
8	0xbe35a741	-0.17739584
9	0x3daf8bc2	0.085715786
10	0xbc7de43b	-0.015496309
11	0xbe0bc283	-0.13648419
12	0x3d33aab4	0.043863967
13	0xbdd6e10d	-0.10492144
14	0xbe39c2b7	-0.18140684
15	0x3d903ece	0.07043229

encoder.encBlocks.1.conv1.weight f4 [32, 16, 3, 3]
0	0xbba042e9	-0.004890789
1	0xbd6e7836	-0.05822011
2	0xbd8e8178	-0.06958288
3	0x3d3f2fa9	0.04667631
4	0xbda576bc	-0.080792874
5	0x3d45da06	0.048303626
6	0x3cba53ec	0.022745095
7	0x3c8360f4	0.016037442
8	0x3c800a95	0.015630046
9	0x3db2e86f	0.087357394
10	0xbd3b8163	-0.04577769
11	0xbd927441	-0.0715108
12	0x3d8c2a97	0.06844061
13	0x3d4fb5ff	0.050710674
14	0xbe0f52d4	-0.1399644
15	0xbcdb1d57	-0.026747389
16	0xbd596f82	-0.053084858
17	0xbd4580a3	-0.04821838
18	0x3db2adfb	0.087245904
19	0xbda4aa5c	-0.08040306
20	0xbca6efc1	-0.020377995
21	0x3d149372	0.036273427
22	0xbdf0b8b1	-0.11753977
23	0xbbff5153	-0.007791677
24	0xbd3c1f0e	-0.045928054
25	0xbd096483	-0.03354312
26	0xbd56605c	-0.05233799
27	0x3e0b590c	0.13608187
28	0x3b25d9b0	0.0025306754
29	0x3dae5732	0.08512725
30	0x3de09a58	0.10966939
31	0x3d31c173	0.04339738
32	0xbbc3bc18	-0.0059733503
33	0x3d188523	0.037236344
34	0x3d819e23	0.0632899
35	0x3dc0db4d	0.09416828
36	0x3cdbb53c	0.026819818
37	0x3d624b56	0.055247627
38	0x3d57b92e	0.052666835
39	0x3d8152c3	0.06314614
40	0xbd6c8e90	-0.057753146
41	0xbd451eb3	-0.04812498
42	0xbcce4351	-0.025178583
43	0x3d6eecc1	0.058331255
44	0x3c53f1a9	0.012936034
45	0x3dfc84a6	0.12329988
46	0x3d775a19	0.06038866
47	0xbc6a3fd6	-0.014297446
48	0xbd2d8953	-0.04236729
49	0xbd6cb98e	-0.057794146
50	0x3d0825cb	0.033239167
51	0xbc046a86	-0.008082038
52	0x3d489480	0.048969746
53	0xbc01585b	-0.007894601
54	0x3e073cc4	0.13206774
55	0x3d42aaf0	0.0475263
56	0xbdec437d	-0.1153631
57	0xbc24697e	-0.010034917
58	0xbc21ee3d	-0.009883461
59	0xbe02b5fb	-0.12764733
60	0xbd6de0c3	-0.058075678
61	0xbb39bfe3	-0.0028343133
62	0xbdadd662	-0.08488156
63	0x3db914bb	0.09037157
64	0x3b894569	0.0041891825
65	0x3dead12a	0.11465676
66	0x3cf82407	0.030290617
67	0x3d28d8ab	0.041222256
68	0x3d1ab767	0.037772562
69	0x3cb320be	0.021866199
70	0x3d4fe4fe	0.050755493
71	0x3d7f6454	0.06235154
72	0xb9555203	-0.00020343815
73	0x3d2f228c	0.042757556
74	0xbd81eb41	-0.06343699
75	0xbccaf023	-0.02477271
76	0x3cfa1706	0.030528557
77	0xbdaa5eee	-0.08318888
78	0xbd6a30d6	-0.05717548
79	0x3d93ab4f	0.07210409
80	0x3c9d94f9	0.019236075
81	0x3d77e50a	0.060521163
82	0xbc048e04	-0.0080905
83	0x3b8d3994	0.0043098424
84	0x3d8f77fa	0.070053056
85	0x3dbba88e	0.09163009
86	0xbd07990e	-0.03310495
87	0x3d6374ab	0.055531185
88	0x3e135a41	0.14389898
89	0xbd4f27c0	-0.050575018
90	0xbd6c8345	-0.057742376
91	0xbd56d78d	-0.05245166
92	0x3d92e378	0.071722925
93	0xbe4f448c	-0.20240992
94	0xbd2c8a70	-0.04212421
95	0x3da58559	0.08082075
96	0xbd919367	-0.07108193
97	0xbdb85e02	-0.090023056
98	0x3caf8554	0.02142588
99	0x3d96e208	0.07367331
100	0xbdacbb9d	-0.08434222
101	0xbca1e13d	-0.019760722
102	0x3ce41b6e	0.02784511
103	0x3dad7e8e	0.08471404
104	0xbc48f228	-0.012264766
105	0x3d5dc48c	0.05414252
106	0x3dc88c3a	0.09792371
107	0x3d3544b2	0.044254966
108	0x3d8db68c	0.06919584
109	0xbd33227b	-0.043734055
110	0x3cde26bb	0.027118078
111	0x3cde8b13	0.027165925
112	0xbd139545	-0.036031026
113	0xbd0bc837	-0.034126487
114	0x3dbf7eb0	0.093503356
115	0xbd530cfc	-0.051526055
116	0xbc86d33c	-0.016458146
117	0xbda8a96a	-0.08235438
118	0xbb75e1dc	-0.0037518656
119	0xbd36a84e	-0.0445941
120	0x3942e48a	0.00018586419
121	0xbcadfcc5	-0.021238694
122	0xbc6bda31	-0.014395283
123	0xbb0f6108	-0.0021877903
124	0xbd994e43	-0.0748563
125	0xbd1f9ff7	-0.038970914
126	0x3e9a2960	0.30109692
127	0x3dfc2740	0.12312174
128	0x3d7b124f	0.061296757
129	0x3e9303b1	0.28713754
130	0x3e66828e	0.2251074
131	0x3be5d7f1	0.0070142676
132	0x3e2ede9d	0.17077108
133	0x3e9e828d	0.30958977
134	0x3e0853cb	0.13313214
135	0x3dba314a	0.090914324
136	0x3c0fefdf	0.008785217
137	0x3d970719	0.07374401
138	0xbd69f662	-0.057119735
139	0xbb8a31f2	-0.0042173797
140	0xbc8839e2	-0.016629163
141	0xbd8c7a06	-0.068592116
142	0xbcdc9731	-0.026927562
143	0xbd29f342	-0.041491754
144	0xbcebbf22	-0.028777663
145	0x3d89782b	0.06712373
146	0x3e35fec3	0.17772965
147	0xbdd12125	-0.102114
148	0xbdcf6593	-0.101267956
149	0xbd929da3	-0.07158973
150	0x3e17c56e	0.14821407
151	0xbd87fec9	-0.06640393
152	0x3b93e8b9	0.0045138267
153	0x3e20839e	0.15675208
154	0x3ca1aa2e	0.019734468
155	0xbe24a4f6	-0.16078553
156	0x3d095e1e	0.033537023
157	0x3de19c9a	0.110161975
158	0x3b0ffca3	0.0021970652
159	0xbe1624e6	-0.14662513
160	0x3cce21c6	0.025162589
161	0x3df5f4df	0.12009596
162	0xbcce1e34	-0.025160886
163	0x3c1f788a	0.009733329
164	0xbe61b936	-0.22043309
165	0xbd882d0b	-0.06649216
166	0xbd5a5e4e	-0.053312592
167	0xbcf56332	-0.029954527
168	0xbd5726ea	-0.052527346
169	0xbcec266c	-0.028826915
170	0x3d71de91	0.059050146
171	0x3cd3335b	0.025781324
172	0xbc8b13ce	-0.016977217
173	0x3e2114f9	0.15730657
174	0x3df4a4b4	0.11945477
175	0x3d21b399	0.03947792
176	0xbbb01e9e	-0.0053747436
177	0x3c853898	0.016262338
178	0xbc6a14f8	-0.014287226
179	0x3d69ab8f	0.057048377
180	0x3e2f0d2e	0.17094871
181	0x3d13e938	0.036111087
182	0x3e15aaf2	0.14615992
183	0xbc977514	-0.018488444
184	0xbccaf236	-0.024773698
185	0x3d54b5da	0.05193124
186	0xbc6ee8ee	-0.014581902
187	0xbd3ccfc1	-0.046096567
188	0x3d34aac6	0.044108175
189	0x3c173030	0.009227797
190	0xbe3c01b2	-0.18360022
191	0xbe877e77	-0.26463673
192	0x3d68cd72	0.056836553
193	0x3d561a3f	0.052271124
194	0x3ccef090	0.025261194
195	0xbd0211ad	-0.03175514
196	0x3db68f54	0.089140564
197	0x3dae5598	0.085124195
198	0x3ddb25e9	0.1070059
199	0xbd264301	-0.040591244
200	0xbe002de6	-0.12517509
201	0x3db6dba5	0.089286126
202	0xbd0aa036	-0.033844195
203	0x3b044dba	0.002018793
204	0xbda7f571	-0.08201111
205	0xbdd29bd9	-0.10283632
206	0xbcf3f20f	-0.029778508
207	0xbdf2674d	-0.11836109
208	0x3d51f258	0.051256508
209	0x3e2f98e1	0.17148162
210	0xbd0dbd8a	-0.034604587
211	0xbd9ae4dc	-0.07563183
212	0xbd849d3c	-0.064753026
213	0x3e8b1b28	0.27169156
214	0x3d89b0e6	0.06723194
215	0xbda7aed1	-0.081876405
216	0xbd204a42	-0.039133318
217	0xbce79d99	-0.02827339
218	0xbda2b445	-0.0794454
219	0x3de7e2f6	0.11322586
220	0x3ddf19f0	0.10893619
221	0xbcd5e49f	-0.026109992
222	0x3e6a632a	0.2288939
223	0x3e905742	0.28191572
224	0x3df77fd7	0.120849304
225	0x3e269cd7	0.16270767
226	0x3e3bb020	0.18328905
227	0x3e19d748	0.1502353
228	0x3d8e8cac	0.06960425
229	0x3e4412c8	0.1914779
230	0x3e3318f0	0.17489982
231	0xbe189223	-0.14899497
232	0x3cd9d299	0.026589679
233	0x3ddda204	0.10821918
234	0x3d82e61f	0.06391548
235	0x3d2a8890	0.041634142
236	0xbc9a53c5	-0.018838773
237	0xbd242121	-0.040070657
238	0xbcdcc89b	-0.026951125
239	0xbcfb2b10	-0.030660182
240	0xbb819a9b	-0.003955198
241	0x3d705a61	0.058679942
242	0x3d57f388	0.052722484
243	0x3e174a88	0.14774525
244	0x3ea179ef	0.3153834
245	0x3e8c2638	0.2737291
246	0xbe797247	-0.2436
247	0x3e15c432	0.14625624
248	0x3e95e2d7	0.29274628
249	0xbe813274	-0.25233805
250	0xbe319a20	-0.1734395
251	0x3de8730b	0.11350068
252	0x3d7d048b	0.06177191
253	0x3d7d1779	0.061789963
254	0xbb66a9b3	-0.0035196363
255	0xbcf125b0	-0.029436916

encoder.encBlocks.1.conv1.bias f4 [32]
0	0xbe2eb59c	-0.17061466
1	0xbc60c127	-0.013717926
2	0xbddbb34e	-0.10727559
3	0xbd8dcd19	-0.06923885
4	0xbe683b37	-0.22678839
5	0xbe2e4e70	-0.17022109
6	0xbc740393	-0.01489343
7	0xbdd0ffe4	-0.10205057
8	0xbe668524	-0.22511727
9	0xbdd24116	-0.102663204
10	0xbe0b67bb	-0.13613789
11	0xbdc3ec20	-0.09566522
12	0xbe1e984d	-0.15487786
13	0xbb7090e1	-0.0036707448
14	0x3e0e101d	0.13873334
15	0x3cccdeb3	0.025008535
16	0xbe003735	-0.1252106
17	0xbe26938c	-0.16267222
18	0xbeb6bdab	-0.3569158
19	0xbe607fe3	-0.21923785
20	0xbe45edd5	-0.19329007
21	0xbda05497	-0.07828634
22	0xbe6041fb	-0.2190017
23	0xbdc227d6	-0.09480254
24	0xbe580197	-0.21094356
25	0xbd4050d4	-0.046952084
26	0xbe288765	-0.16457899
27	0xbd5dc62b	-0.054144066
28	0x3e02c223	0.1276937
29	0x3aeab0d2	0.001790548
30	0xbdb3af34	-0.08773652
31	0xbe78bc91	-0.24290682

encoder.encBlocks.1.conv2.weight f4 [32, 32, 3, 3]
0	0xbdbf87ba	-0.0935206
1	0xbdb896a0	-0.090131044
2	0xbd67b4e7	-0.056569006
3	0xbc874789	-0.016513603
4	0xbc4b3c1b	-0.012404467
5	0xbd63c11f	-0.055604097
6	0xbbda1ceb	-0.0066562793
7	0xbcd149f4	-0.025547959
8	0xbda283a8	-0.07935268
9	0xbe3ad7ca	-0.1824638
10	0xbdeacfaa	-0.1146539
11	0xbda4fae2	-0.080556646
12	0xbc846d6b	-0.016165456
13	0xbe0d2206	-0.1378251
14	0xbcd361b2	-0.02580342
15	0x3dc242ec	0.094854206
16	0xbcd03e82	-0.025420431
17	0x3e10dfd2	0.1414788
18	0xbd6bb921	-0.0575496
19	0xba86f4db	-0.0010296361
20	0x3d53a1cb	0.05166797
21	0xbe06e5b3	-0.13173561
22	0xbd56dce4	-0.05245675
23	0xbe00a11b	-0.12561457
24	0xbd4b6f2c	-0.04966657
25	0x3d0d30aa	0.034470238
26	0x3d33bf2e	0.043883495
27	0xbd90f239	-0.0707745
28	0x3cfd2f2a	0.030906279
29	0x3c7a9015	0.015293141
30	0xbc46eb02	-0.012140991
31	0x3d13dcd9	0.03609929
32	0xbc43a24e	-0.011940552
33	0x3aa22317	0.0012370077
34	0x3cc5538b	0.024087688
35	0xbc653710	-0.013990179
36	0xbcb941c0	-0.02261436
37	0xbd9ab02b	-0.075531326
38	0xbe16695c	-0.14688629
39	0xbc94d1eb	-0.018166503
40	0xbe052356	-0.13001761
41	0xbdbc6612	-0.09199156
42	0xbd09428d	-0.033510733
43	0xbd3d7db5	-0.04626246
44	0x3d9202f1	0.07129467
45	0xbcfe88fc	-0.031071179
46	0xbd41f69c	-0.047354326
47	0xbe0a1d07	-0.13487636
48	0xbd41ae68	-0.047285467
49	0xbd62136e	-0.05519431
50	0xbd9db527	-0.07700568
51	0x3de6cee3	0.11269929
52	0x3d9d2767	0.07673531
53	0xbda074a3	-0.07834747
54	0x3c9703fd	0.018434519
55	0x3d07d540	0.033162355
56	0xbd868662	-0.065686
57	0x3da2b55a	0.07944746
58	0xbb68d70d	-0.003552857
59	0x3d424333	0.047427367
60	0xbb7e6c0e	-0.003882173
61	0x3bf656f3	0.0075176894
62	0x3cf2c733	0.029636001
63	0x3c7c6cc1	0.015406788
64	0x3bd2bbb1	0.006431066
65	0x3d4aa828	0.049476773
66	0x3d16f471	0.03685421
67	0x3b5f9ad7	0.0034119391
68	0xbdb3250f	-0.08747303
69	0x3df23721	0.11826921
70	0x3d104f6f	0.035232004
71	0xbe2c9b65	-0.16856153
72	0x3cc3138e	0.023813035
73	0xbc7fb286	-0.015606528
74	0x3ca8ccc3	0.02060545
75	0x3b01749c	0.0019753342
76	0x3d9c670c	0.07636842
77	0x3c98671d	0.018603856
78	0x3d7e58c5	0.062096376
79	0x3d2d99c2	0.042382963
80	0x3dc99d91	0.098445065
81	0xbe3e1916	-0.18564257
82	0xbe360945	-0.17776974
83	0xbd144084	-0.03619434
84	0xbd6df748	-0.058097154
85	0xbd667909	-0.056267772
86	0xbdc174aa	-0.0944608
87	0xbcb6863c	-0.022280805
88	0xbdc5146b	-0.09623035
89	0xbd72eef1	-0.059309904
90	0xbd1323ee	-0.035922937
91	0x3d6aaa90	0.057291567
92	0xbd0b5815	-0.03401955
93	0x3dda9f37	0.10674899
94	0x3d4d8d9a	0.05018387
95	0xbcb12dde	-0.021628316
96	0xbd6b5b29	-0.057459984
97	0xbd2e57ef	-0.04256433
98	0xbcbac32f	-0.022798149
99	0x3b6e137d	0.0036327534
100	0xbcef4321	-0.029206814
101	0x3d8f126b	0.06985935
102	0x3c18fd58	0.009337746
103	0xbdf96f6c	-0.12179455
104	0xbd5705ed	-0.052495886
105	0x3dbaa534	0.09113541
106	0xbe1121e2	-0.14173082
107	0xbe0886cb	-0.1333267
108	0xbd8804f0	-0.06641567
109	0xbd2e34b1	-0.04253072
110	0xbd241353	-0.04005749
111	0xbde2c356	-0.110724136
112	0x3c1341f0	0.008987889
113	0x3bf51e9f	0.007480457
114	0x3b568da3	0.003273823
115	0xbd437092	-0.047714777
116	0xbd1a8c57	-0.037731495
117	0xbd262509	-0.040562663
118	0x3c710889	0.014711508
119	0xbe0be7fb	-0.13662712
120	0x3db095f8	0.08622354
121	0xbda095fd	-0.07841108
122	0xbdfcaa72	-0.12337197
123	0x3d86c153	0.065798424
124	0xbdae2d23	-0.08504703
125	0xbe18aa2f	-0.1490867
126	0xbd9cd4e3	-0.076577924
127	0xbd8dac11	-0.06917585
128	0xbd551476	-0.052021466
129	0xbd7631f6	-0.06010624
130	0xbd868ec6	-0.065702006
131	0xbde888cd	-0.11354218
132	0xbc3262e7	-0.010887838
133	0xbe2f0cbe	-0.17094705
134	0xbc4cea43	-0.012507024
135	0x3e233421	0.15937854
136	0x3cb99f72	0.022659037
137	0xbbaae2ac	-0.0052150097
138	0x3d473464	0.048633948
139	0xbd32cfbf	-0.043655153
140	0x3d1ac6a7	0.037787106
141	0x3bc451ba	0.005991188
142	0xbde3815b	-0.11108657
143	0xbd2d010d	-0.04223733
144	0x3d5dae2d	0.054121185
145	0x3c9ab75e	0.018886264
146	0x3d2eb981	0.04265738
147	0xbc916ea5	-0.017752955
148	0xbcad8387	-0.021180881
149	0xbcc4b9a1	-0.024014296
150	0xbd74c5a2	-0.05975879
151	0xbe2d317c	-0.16913408
152	0xbde5852a	-0.1120704
153	0x3de527f7	0.11189263
154	0x3dca3927	0.09874182
155	0xbd7a5777	-0.06111857
156	0x3e44a6c8	0.19204247
157	0x3b3c8a47	0.0028768943
158	0xbd31fa16	-0.04345139
159	0x3cca97e7	0.024730636
160	0x3d23bc22	0.03997434
161	0x3d07a05c	0.033111915
162	0xbe02e655	-0.12783177
163	0xbd6cc37a	-0.05780361
164	0xbd512292	-0.05105836
165	0x3d8cb444	0.068703204
166	0xbc18ce72	-0.009326564
167	0x3dc57d50	0.09643042
168	0x3d8eab84	0.06966308
169	0x3decd359	0.11563749
170	0x3dc38585	0.09546951
171	0x3cbd8ff1	0.023139926
172	0x3d881fb0	0.06646669
173	0x3da31635	0.0796322
174	0x3999917b	0.00029290825
175	0xbcfee3e3	-0.031114524
176	0xbdb7e69f	-0.08979534
177	0x3deb1ef3	0.114805125
178	0x3cccdea8	0.025008515
179	0xbd0ac079	-0.033874962
180	0x3c45a917	0.01206424
181	0x3db59d2b	0.08867868
182	0x3d9e9a12	0.0774423
183	0x3d4b732a	0.049670376
184	0x3da5f3cd	0.08103142
185	0xbb0bcc24	-0.0021331394
186	0x3de442f2	0.11145581
187	0x3d37a54e	0.04483538
188	0xbd0384a1	-0.032108907
189	0x3e59718a	0.21234718
190	0xbd208eb5	-0.039198596
191	0xbddf45f0	-0.109020114
192	0x3e2955fe	0.1653671
193	0xbd5c4bd9	-0.05378327
194	0x3c0f3a8f	0.008741989
195	0x3d212e6b	0.03935091
196	0x3be025e4	0.0068404544
197	0x3d91b983	0.07115462
198	0x3d45afbc	0.048263296
199	0x3d15133f	0.036395308
200	0xbd98f9f6	-0.07469551
201	0x3de36072	0.1110238
202	0x3d1d6863	0.03842963
203	0x3dba0adf	0.09084105
204	0x3e0c9954	0.13730365
205	0x3daf3441	0.085548885
206	0x3d3e7f49	0.046508107
207	0xbd039491	-0.032124106
208	0xbc5931bc	-0.0132564865
209	0xbd6d5175	-0.05793901
210	0xbda33502	-0.07969095
211	0xbda374a4	-0.07981232
212	0x3cce0a6e	0.025151458
213	0x3cefbe71	0.029265614
214	0xbd47eb30	-0.048808277
215	0xbd2ee5af	-0.042699512
216	0xbcec05f0	-0.028811425
217	0xbddac181	-0.10681439
218	0xbcc1a3da	-0.0236377
219	0x3db0b8eb	0.0862902
220	0xbb11ee6e	-0.002226736
221	0x3c693b87	0.014235384
222	0x3def6323	0.11688831
223	0x3de0fd7d	0.10985849
224	0xbdec9801	-0.1155243
225	0xbe6448d7	-0.22293411
226	0xbbd7981e	-0.006579413
227	0xbd5016b8	-0.050802916
228	0xbd6bbd93	-0.05755384
229	0xbdf8bde0	-0.12145591
230	0xbc1acda9	-0.009448447
231	0x3b9cc12c	0.00478377
232	0xbe0f7d77	-0.14012705
233	0xbe096576	-0.1341761
234	0xbdfe31a9	-0.12411816
235	0xbd57a65b	-0.052648883
236	0xbe1d580a	-0.15365615
237	0xbd9a0bed	-0.07521806
238	0xbddddd21	-0.108331926
239	0x3c1b4558	0.009476982
240	0xbcf25c12	-0.029584918
241	0xbd6eb7e6	-0.058280848
242	0xbd2855de	-0.041097514
243	0xbdb5bc43	-0.08873799
244	0xba87616c	-0.0010328717
245	0xbd68f130	-0.05687064
246	0xbde0be40	-0.10973787
247	0x3d296f57	0.041365948
248	0xbd7062f4	-0.05868812
249	0xbdaaa281	-0.083317764
250	0xbda83a85	-0.08214287
251	0xbc3e8a1b	-0.011629607
252	0x3d1da82e	0.038490467
253	0x3e0f1119	0.13971366
254	0x3e466307	0.19373713
255	0xbcbacec8	-0.02280368

encoder.encBlocks.1.conv2.bias f4 [32]
0	0xbe0e700f	-0.13909934
1	0xbe720619	-0.23635139
2	0xbe233bcb	-0.15940778
3	0xbdb322a0	-0.087468386
4	0xbe101aa5	-0.14072664
5	0xbe5f5e64	-0.21813351
6	0xbe7cb13b	-0.24676983
7	0xbe13a21c	-0.14417309
8	0xbe8db348	-0.27675843
9	0x3e14a934	0.14517671
10	0xbe74806c	-0.23877114
11	0x3e5488b0	0.20755267
12	0x3e11075c	0.14162964
13	0xbe6d6c2f	-0.231858
14	0x3dde63ad	0.108588554
15	0xbe543d47	-0.207265
16	0x3e46d5f8	0.1941756
17	0xbe6dbc83	-0.23216443
18	0xbdead216	-0.11465852
19	0xbe0da388	-0.13831913
20	0xbdeaa965	-0.11458091
21	0xbe783a86	-0.24241075
22	0x3d0908b0	0.03345555
23	0xbe443712	-0.19161633
24	0x3e1934d1	0.14961554
25	0x3e17c1f6	0.14820084
26	0x3e22a002	0.1588135
27	0x3d721d05	0.059109706
28	0x3ceb30f4	0.028709866
29	0x3d822a8e	0.06355773
30	0x3d3b2812	0.04569251
31	0x3d8d923d	0.06912658

encoder.encBlocks.2.conv1.weight f4 [64, 32, 3, 3]
0	0xbe3ce1de	-0.18445536
1	0xbb053dc2	-0.0020331
2	0x3d04b167	0.032395747
3	0xbc0def31	-0.008662985
4	0xbd3427d8	-0.04398331
5	0xbc199561	-0.009373994
6	0xbde65295	-0.1124622
7	0xbc93af68	-0.018027976
8	0x3d477969	0.04869977
9	0xbd485c9f	-0.048916455
10	0xbe2ecac8	-0.17069542
11	0xbe53bc4a	-0.20677295
12	0xbd7fb65b	-0.062429767
13	0xbcc04a85	-0.023473034
14	0xbe01b754	-0.1266759
15	0xbd1ed703	-0.03877927
16	0x3d0fca6e	0.03510516
17	0xbd2d2513	-0.042271685
18	0xbcc60c6b	-0.024175843
19	0x3d7d5814	0.061851576
20	0x3d54fa36	0.051996432
21	0xbe25eddd	-0.16204019
22	0xbcac7d6e	-0.021055903
23	0x3c1c1cc3	0.009528342
24	0x3d94144a	0.07230432
25	0x3d8a5cc1	0.06755973
26	0x3c161612	0.009160535
27	0x3df3522c	0.118809074
28	0xbdaf5e0c	-0.0856286
29	0x3c62757e	0.013821958
30	0xbd8c55fa	-0.06852336
31	0x3e06e97b	0.13175003
32	0xbd4b24e9	-0.049595747
33	0xbd3795f3	-0.044820737
34	0x3d41bb60	0.047297835
35	0x3d75afe2	0.059982188
36	0xbe19f1f1	-0.150337
37	0xbda47f94	-0.08032146
38	0x3d84807c	0.06469819
39	0xbe2be674	-0.1678713
40	0xbd78ff08	-0.06079009
41	0x3dad9ac3	0.08476784
42	0x3c6b404a	0.014358589
43	0x3d0e5146	0.034745477
44	0xbb9a2d11	-0.0047050794
45	0xbdf72446	-0.120674655
46	0xbd9d32f9	-0.07675738
47	0xbde1d90e	-0.11027728
48	0x3ceb5b43	0.02873004
49	0x3e091b9e	0.13389441
50	0xbd59ad46	-0.053143762
51	0x3e044b6f	0.129194
52	0x3df9b198	0.121920764
53	0x3de6e935	0.112749495
54	0x3da84f2f	0.08218228
55	0xbb36fad0	-0.0027920492
56	0x3e0bc50b	0.13649385
57	0xbd787024	-0.06065382
58	0x3db458f2	0.088060275
59	0xbcf9e261	-0.030503454
60	0xbcfb0407	-0.030641569
61	0x3e02bec6	0.12768087
62	0x3d899a4b	0.06718882
63	0xbcd9df77	-0.026595814
64	0xbe1ab63f	-0.15108584
65	0x3d4b9615	0.049703676
66	0xbd830f7d	-0.063994385
67	0xbce8fd2d	-0.028441036
68	0xbc123d65	-0.00892577
69	0xbdd6dcc6	-0.10491328
70	0xbd803215	-0.062595524
71	0xbd981ec4	-0.07427743
72	0xbd0fc4b2	-0.035099693
73	0xbdb2413f	-0.08703851
74	0x3d5e8d4a	0.054333963
75	0xbcd5a319	-0.026078748
76	0xbd1dc6ea	-0.038519777
77	0x3bc549c4	0.0060207564
78	0x3cc21974	0.023693778
79	0x3cf7ab96	0.030233186
80	0x3ba74525	0.005104678
81	0x3d256d8b	0.04038767
82	0x3d9073e0	0.070533514
83	0x3dc5f3a6	0.09665613
84	0x3c51edee	0.0128130745
85	0x3dc52225	0.09625653
86	0x3cab4802	0.02090836
87	0xbcf8911f	-0.030342637
88	0x3d1a1bde	0.037624232
89	0x3c1b8573	0.009492266
90	0xbd9b621a	-0.07587071
91	0x3c86a419	0.01643567
92	0x3b5fcea6	0.0034150272
93	0x3c252c3d	0.010081348
94	0x3d932317	0.07184427
95	0x3c689cf8	0.0141975805
96	0x3de92ec3	0.11385872
97	0x3d9be6dd	0.07612393
98	0x3dceffd0	0.10107386
99	0x3d6f8a8b	0.058481734
100	0x3db55608	0.088543
101	0x3dc340d1	0.09533847
102	0xbd81e6d8	-0.06342858
103	0x3d9ec213	0.077518605
104	0x3e0260e0	0.12732267
105	0xbde10373	-0.10986986
106	0x3d095e13	0.03353698
107	0x3d4460b2	0.04794378
108	0x3e6825d4	0.2267068
109	0x3dc1c5fa	0.09461589
110	0x3cc226ac	0.02370008
111	0xbd678eb1	-0.056532566
112	0xbdf3b0c5	-0.118989505
113	0x3d8f7db1	0.070063956
114	0xbd0b04ba	-0.033940054
115	0xbc173f51	-0.009231404
116	0x3c85aba3	0.016317194
117	0xbdff7dc2	-0.12475158
118	0xbdf5924f	-0.11990797
119	0x3d535af3	0.051600408
120	0xbc089c6d	-0.008338076
121	0xbce89a9c	-0.028394036
122	0xbd6b9e87	-0.05752423
123	0x3dfd7240	0.12375307
124	0x3d9ecf1d	0.077543475
125	0xbd0508d2	-0.032479115
126	0xbd76c9cc	-0.060251042
127	0x3df3b082	0.118989006
128	0x3d53adfc	0.051679596
129	0xbd749d0d	-0.059720088
130	0xbdc7ddca	-0.097591
131	0x3e634ee7	0.22198068
132	0xbd2ecaed	-0.042673994
133	0x3d5659cf	0.052331742
134	0xbc09b828	-0.008405723
135	0xbd8d7240	-0.06906557
136	0xbdb8e4dd	-0.09028027
137	0x3dfb563c	0.12272307
138	0x3cedd401	0.029031755
139	0xbcd39e40	-0.025832295
140	0xbd49d93a	-0.04927943
141	0x3d291ae9	0.04128543
142	0x3d8cd766	0.068770215
143	0x3d63b314	0.055590704
144	0x3d5ccdc2	0.053907163
145	0x3e4783e3	0.19483905
146	0x3cd2b11d	0.02571922
147	0xbadf9e42	-0.0017060714
148	0x3d8b4f55	0.06802241
149	0x3dfa49be	0.122210965
150	0x3d0cecea	0.034405626
151	0xbd17c99f	-0.037057515
152	0x3c99db51	0.018781336
153	0x3ce6013b	0.028076759
154	0xbde69deb	-0.11260589
155	0x3d86d3c4	0.0658336
156	0xbe91e382	-0.28493887
157	0xbd2a6ebc	-0.04160951
158	0xbdd4eb3a	-0.103964284
159	0xbe0fdbde	-0.14048716
160	0x3d3b7f88	0.04577592
161	0x3dfb6ec5	0.12276987
162	0x3d0d53ce	0.03450375
163	0xbda5653e	-0.08075951
164	0x3da0c64c	0.07850322
165	0xbd1ec052	-0.03875763
166	0xbdc1117d	-0.09427164
167	0xbd257d0e	-0.040402465
168	0xbd9b6bca	-0.075889185
169	0xbd405bec	-0.046962664
170	0x3d9cc5c1	0.07654906
171	0xbe2d6772	-0.16933993
172	0x3d18f3ef	0.03734201
173	0x3da181ee	0.0788611
174	0xbd1357c8	-0.035972387
175	0x3d2dd1c4	0.042436376
176	0x3dcf7ae4	0.101308614
177	0xbd2f3553	-0.042775463
178	0x3cb86ff7	0.022514326
179	0x3d0ce855	0.034401257
180	0xbe7cf534	-0.24702913
181	0xbe4c4725	-0.19949014
182	0x3db9e146	0.090761706
183	0xbe61e4bc	-0.22059911
184	0x3db09aa9	0.08623249
185	0x3d620c28	0.055187374
186	0xbd197da0	-0.03747332
187	0xbe0852b9	-0.13312806
188	0xbc96122c	-0.018319212
189	0x3caf4282	0.021394018
190	0xbddc38a5	-0.107529916
191	0x3daa3091	0.083100446
192	0xbe00a1cd	-0.12561722
193	0xbd509d56	-0.050931297
194	0xbd4477bb	-0.047965746
195	0xbd0b0014	-0.03393562
196	0x3daee772	0.085402384
197	0x3d6434d8	0.05571446
198	0x3e413b4b	0.18870275
199	0x3c663f42	0.014053168
200	0xbd7f9ce3	-0.06240548
201	0xbc997b22	-0.018735472
202	0xbce22708	-0.027606502
203	0xbd3fff5e	-0.046874397
204	0xbc68c319	-0.014206671
205	0x3e61eec4	0.22063738
206	0x3e1d1c04	0.15342718
207	0x3dda9a51	0.10673965
208	0xbd853e04	-0.06505969
209	0x3c9822f7	0.01857136
210	0xbd9f797c	-0.07786843
211	0xbdc8acce	-0.09798585
212	0xbdf8e064	-0.12152174
213	0xbd82b79e	-0.063826784
214	0x3d7c5cc3	0.061611902
215	0xbda18c2c	-0.07888064
216	0x3dc6a29f	0.09698986
217	0x3dc3d036	0.095611975
218	0xbc7dcc63	-0.015490624
219	0x3c551192	0.013004677
220	0xbc5bb1cc	-0.013409089
221	0x3d712e32	0.058881946
222	0x3b2dddd7	0.0026529932
223	0xbd29d540	-0.041463137
224	0xbd851947	-0.06498962
225	0x3b95102f	0.0045490484
226	0x3cdcc05f	0.026947198
227	0xbd2e0df5	-0.04249378
228	0x3cb9b8eb	0.022671184
229	0x3dd6b101	0.104829796
230	0x3c96184c	0.018322133
231	0xbc7c1465	-0.015385722
232	0x3c1633ee	0.009167654
233	0xbc1122dd	-0.00885841
234	0xba6944a9	-0.0008898476
235	0x3dee23ff	0.116279595
236	0x3e50fb5e	0.20408389
237	0xbe18a0a0	-0.14905024
238	0xbd2aec31	-0.041729156
239	0x3d4156eb	0.047202032
240	0xbdf32b0b	-0.11873444
241	0xbd9bc229	-0.076053925
242	0xbd51a877	-0.05118605
243	0x3a4b466b	0.00077543285
244	0xbc110afb	-0.008852716
245	0xbc346cae	-0.011012239
246	0x3ddc7480	0.10764408
247	0x3dc5f9e9	0.09666807
248	0x3de743a9	0.11292202
249	0x3da4f3bc	0.08054301
250	0x3cbc027b	0.022950402
251	0x3de11ecf	0.109922044
252	0xbe8a53ff	-0.2701721
253	0xbdd40748	-0.10352951
254	0x3d7ff84c	0.062492654
255	0xbe210397	-0.15724026

encoder.encBlocks.2.conv1.bias f4 [64]
0	0x3cc47848	0.023983136
1	0xbde4fb4b	-0.11180743
2	0xbe1023b1	-0.14076115
3	0x3bc6abbe	0.0060629537
4	0xbe22f3f1	-0.15913369
5	0xbe42a16a	-0.19006887
6	0xbe39d9e3	-0.18149523
7	0x3dcfae5b	0.101406775
8	0x3de34d9d	0.11098788
9	0x3e2bd070	0.16778731
10	0xbd9cb215	-0.07651154
11	0xbdb7044e	-0.08936368
12	0x3e10ec11	0.14152552
13	0x3d116825	0.03549971
14	0xbd869da2	-0.06573035
15	0xbd2a85ec	-0.041631624
16	0x3ca525fe	0.020159718
17	0x3e7f830d	0.24952336
18	0x3ca57278	0.020196185
19	0x3e2e669c	0.1703133
20	0xbe1421db	-0.1446604
21	0x3e0b842f	0.13624643
22	0xbe24b612	-0.1608508
23	0x3d37ac96	0.044842325
24	0xbe07d7e5	-0.13265951
25	0xbe7a4607	-0.24440776
26	0x3d9398bb	0.072068654
27	0xbd7f8dbd	-0.06239103
28	0xbe95075a	-0.2910717
29	0x3e1943ca	0.14967266
30	0xbe030fec	-0.12799042
31	0x3d49b7f7	0.04924771
32	0x3e48fb53	0.19627123
33	0x3df4c505	0.11951641
34	0x3e4eecac	0.2020747
35	0x3d21a893	0.039467406
36	0xbdeab7f1	-0.11460865
37	0xbe67ce31	-0.2263725
38	0xbd287a47	-0.041132238
39	0x3e1cd65c	0.15316147
40	0xbe741435	-0.23835833
41	0xbdf77b20	-0.12084031
42	0xbcb0f5c4	-0.021601565
43	0x3e33f4b7	0.1757382
44	0x3e597b08	0.21238339
45	0x3d451108	0.048111945
46	0x3d99ed0e	0.07515918
47	0xba8dd4c7	-0.0010820859
48	0x3e45b56b	0.19307487
49	0x3e186654	0.14882785
50	0xbd49064d	-0.049078275
51	0x3e7226e5	0.2364765
52	0x3df064d0	0.117379785
53	0x3c80d28a	0.015725393
54	0x3e6421e0	0.22278547
55	0x3e2c3ff6	0.16821274
56	0xbe30c5fe	-0.17263028
57	0x3e3b41e3	0.18286853
58	0x3e0f90df	0.14020108
59	0xbe3f829e	-0.1870217
60	0x3ba8dbd7	0.00515316
61	0x3de44a1b	0.11146947
62	0x3e42386e	0.18966839
63	0x3e434cf4	0.19072324

encoder.encBlocks.2.conv2.weight f4 [64, 64, 3, 3]
0	0x3da75cc5	0.08171991
1	0x3e009455	0.12556584
2	0x3c5e14ca	0.013554761
3	0x3d2bcca5	0.04194321
4	0xbcbb3a8a	-0.022855062
5	0xbd35d9f2	-0.044397302
6	0xbe0ffb10	-0.14060616
7	0xbe32a3e9	-0.1744534
8	0xbe238729	-0.15969528
9	0x3c3c1a17	0.01148083
10	0x3d398eea	0.04530231
11	0xbc1bfad1	-0.0095202485
12	0xbd7006fd	-0.058600415
13	0x3cae383c	0.021267049
14	0x3d42788c	0.047478244
15	0xbcde3d77	-0.027128918
16	0x3d69febe	0.057127707
17	0x3bc3078e	0.0059518283
18	0xbd011bfb	-0.031520825
19	0xbdd02262	-0.10162808
20	0xbb01787e	-0.0019755657
21	0xbd900746	-0.07032637
22	0xbbf63278	-0.0075133406
23	0x3de45b50	0.11150229
24	0xbca4bfb6	-0.020110946
25	0x3d48cf78	0.049025983
26	0x3e02d5ae	0.12776825
27	0xbd9fd8cb	-0.07805022
28	0x3c0d8c49	0.008639404
29	0xbd0ceb64	-0.034404173
30	0xbcbddd05	-0.02317668
31	0xbbfc49b3	-0.0076992153
32	0xbb645336	-0.0034839637
33	0xbdeac7ce	-0.11463891
34	0xbd85ef39	-0.06539769
35	0x3cb784fc	0.02240228
36	0xbba916a9	-0.005160172
37	0x3ce6aaf3	0.028157687
38	0xbbd2b0c4	-0.0064297635
39	0xbd5bbc7f	-0.05364656
40	0x3c9b00ea	0.018921334
41	0x3cab107d	0.020881886
42	0xbdbac7af	-0.09120118
43	0xbc207a7a	-0.009794826
44	0x3cf6f539	0.030146228
45	0xbcb84bf0	-0.022497147
46	0xbb173951	-0.0023074935
47	0x3d60c39e	0.054874055
48	0x3b320dba	0.0027168826
49	0x3dc7eab9	0.09761567
50	0xbc8e2ef7	-0.017356379
51	0xbd1ca533	-0.038243484
52	0x3d3cf520	0.046132207
53	0xbd248082	-0.040161617
54	0xbd3ff032	-0.046859927
55	0xbdca9090	-0.09890854
56	0x3c90e659	0.017687963
57	0xbda5a0ea	-0.080873325
58	0xbb5f47a3	-0.0034069798
59	0xbbdaf413	-0.006681928
60	0xbd5abdb1	-0.05340356
61	0xbc0a5487	-0.008443004
62	0x3dd02284	0.10162833
63	0xbc1746e9	-0.009233215
64	0xbdaf0ce5	-0.08547381
65	0x3c8cd672	0.0171921
66	0x3ce31dc4	0.027724154
67	0xbcf96ab5	-0.03044639
68	0x3d6d32f3	0.057909917
69	0x3dbad223	0.09122112
70	0x3d185a82	0.03719569
71	0x3e0798d9	0.132419
72	0x3dda599d	0.106616236
73	0x3cbf1239	0.023324119
74	0xbd7c60b0	-0.061615646
75	0x3e07f568	0.13277209
76	0x3d5d18b7	0.053978648
77	0x3d317ffc	0.043334946
78	0x3e7b180f	0.24520896
79	0x3de70b9a	0.1128151
80	0x3df743ea	0.120735005
81	0x3dea1827	0.11430388
82	0x3d8293b0	0.063758254
83	0x3c24e681	0.010064722
84	0x3d732d23	0.059369218
85	0x3d9dd83f	0.07707261
86	0x3c8f25fa	0.017474163
87	0xbab0f718	-0.0013501374
88	0x3d045b94	0.0323139
89	0xbc5979ed	-0.013273698
90	0xbdabb174	-0.08383456
91	0xbd9ec46d	-0.07752309
92	0xbe81f3fe	-0.25381464
93	0xbd930c23	-0.07180049
94	0xbd94fc68	-0.07274705
95	0xbe2baea1	-0.16765834
96	0xb9239ea2	-0.00015603987
97	0x3ba1b58a	0.004934971
98	0xbd00e945	-0.031472463
99	0x3db7734b	0.08957537
100	0x3d1f2bbd	0.03886007
101	0x3d56feda	0.05248914
102	0x3d493912	0.049126692
103	0x3dc72df2	0.0972556
104	0x3d9bdbe4	0.076103
105	0x3dc8d7da	0.098067954
106	0x3dae886e	0.08522116
107	0x3d9237d6	0.07139556
108	0x3d5222f8	0.05130288
109	0x3d3a5651	0.045492474
110	0xbcc24658	-0.023715183
111	0xbcfa2198	-0.030533597
112	0x3dad5267	0.084629826
113	0xbd895767	-0.06706124
114	0xbe479aa9	-0.19492592
115	0xbddadd7d	-0.10686777
116	0xbdd6fcd9	-0.104974456
117	0x3deeed70	0.11666381
118	0x3cb76127	0.022385193
119	0xbd06842d	-0.032840896
120	0x3db1d329	0.08682854
121	0x3d653777	0.0559611
122	0x3bb04463	0.005379246
123	0x3e0d339d	0.1378922
124	0x3e02d8a0	0.12777948
125	0x3d706fef	0.0587005
126	0x3e7d7ae2	0.24753907
127	0x3e1976c5	0.14986713
128	0xbd2cd687	-0.042196777
129	0x3bce1e06	0.0062902
130	0xbdae772a	-0.085188225
131	0xbdffb4a4	-0.12485626
132	0xbdab5dae	-0.08367477
133	0x3d99e56c	0.07514462
134	0xbd55d555	-0.052205402
135	0xbd0a733f	-0.033801313
136	0xbcde9520	-0.027170718
137	0x3da7469c	0.081677645
138	0xbe030e4e	-0.12798426
139	0xbd0bfaeb	-0.03417484
140	0x3bfd4a98	0.0077298395
141	0xbe07f1ea	-0.13275877
142	0xbdc842e2	-0.09778382
143	0xbce13b51	-0.027494105
144	0x3e446074	0.19177419
145	0xbd5dc5d9	-0.05414376
146	0x3ac5ead9	0.0015099897
147	0x3e042de7	0.12908135
148	0xbd98acb7	-0.07454818
149	0xbdeb45df	-0.11487936
150	0x3e094681	0.13405801
151	0xbc8702ed	-0.016480887
152	0xbe5338a0	-0.2062707
153	0x3e17df1e	0.14831206
154	0x3cee4548	0.02908577
155	0xbb3c0d64	-0.0028694505
156	0x3d8cab2b	0.06868585
157	0x3db6b8dc	0.08921978
158	0xbd39ea1f	-0.04538929
159	0xbcd3d516	-0.025858443
160	0x3da6e066	0.08148269
161	0x3e064471	0.13112046
162	0x3e18a0ff	0.14905165
163	0xbd998007	-0.074951224
164	0xbe5258b8	-0.20541656
165	0x3dbdb8d4	0.09263769
166	0x3cbc857b	0.023012867
167	0xbd6aae34	-0.05729504
168	0x3dd9799a	0.10618897
169	0x3cbc2315	0.022965947
170	0xbdb306a7	-0.08741503
171	0xbd2f6395	-0.04281958
172	0xbd19ab06	-0.037516616
173	0xbcb20387	-0.021730198
174	0xbcce5045	-0.02518476
175	0x3b7732e0	0.0037719533
176	0x3d91f184	0.071261436
177	0x3d89f417	0.067360096
178	0x3d9f7e0d	0.07787714
179	0x3e1191bd	0.14215751
180	0xbd851f2d	-0.06500087
181	0xbd944cb0	-0.072411895
182	0x3d102f42	0.03520132
183	0xbcdd11de	-0.026986059
184	0xbc1e4919	-0.0096609825
185	0x3cedf73d	0.029048556
186	0xbd79cac2	-0.06098438
187	0x3db93cc8	0.09044796
188	0x3c80b8dd	0.01571315
189	0x3d97706f	0.07394492
190	0xbd2b6869	-0.04184762
191	0xbc698580	-0.01425302
192	0x3e468dee	0.1939008
193	0x3a51e21f	0.0008006412
194	0x3b897862	0.004195259
195	0x3e353556	0.17696127
196	0x3caf1351	0.021371515
197	0x3da2db14	0.07951942
198	0xbdca9d00	-0.098932266
199	0xbe155db1	-0.14586522
200	0xbd91adee	-0.071132526
201	0xbd94ea64	-0.07271269
202	0xbcc3abdf	-0.023885665
203	0x3cc734d9	0.024317192
204	0xbd29236b	-0.041293543
205	0xbd89295f	-0.06697344
206	0xbc2b4582	-0.010453584
207	0xbdfee67b	-0.124463044
208	0xbd9fa309	-0.07794768
209	0xbd91460b	-0.07093438
210	0xbd99088d	-0.07472334
211	0xbd08390b	-0.033257525
212	0xbd285b85	-0.041102905
213	0x3dc4cdfe	0.096096024
214	0x3c2b99ae	0.010473652
215	0xbc05c61c	-0.008164909
216	0xbcb4fece	-0.022094157
217	0xbcb8e4fa	-0.022570122
218	0xbe30db76	-0.17271218
219	0x3b995131	0.004678868
220	0x3d74e39c	0.059787378
221	0xbd2b02ac	-0.041750595
222	0x3cf21bd1	0.02955428
223	0xbcbbf94d	-0.022946024
224	0x3d3759fb	0.044763546
225	0x3c08cd9f	0.008349805
226	0xbc9fab4c	-0.01949086
227	0xbd1c46c8	-0.03815344
228	0xbda59f8a	-0.0808707
229	0xbdb62d32	-0.08895339
230	0xbd915001	-0.07095338
231	0xbe1f04cd	-0.15529175
232	0xbe2d1ae6	-0.16904792
233	0xbe19e064	-0.15027004
234	0xbd9ba979	-0.07600684
235	0xbd084a0e	-0.03327375
236	0xbd22f838	-0.0397875
237	0xbd2d1197	-0.042253103
238	0x3c2ab379	0.010418766
239	0x3d59035a	0.052981712
240	0xbde4346f	-0.111428134
241	0x3cd38646	0.025820863
242	0x3d332b6f	0.043742593
243	0x3e33a3c8	0.17542946
244	0x3b71250b	0.003679576
245	0xbd5e66e0	-0.054297328
246	0x3d82a0c5	0.063783206
247	0xbdb22e37	-0.08700221
248	0xbd4e758f	-0.05040508
249	0x3d18487e	0.03717851
250	0xbca93e94	-0.020659722
251	0xbd615ccb	-0.055020135
252	0xbd6dfdf0	-0.0581035
253	0xbd42e8d4	-0.047585323
254	0x3d712803	0.05887605
255	0xbcbe66da	-0.023242403

encoder.encBlocks.2.conv2.bias f4 [64]
0	0x3e0020de	0.12512538
1	0x3de6e0e6	0.11273365
2	0x3dcb3efa	0.09924121
3	0x3daf10d3	0.08548131
4	0x3e2e5467	0.17024384
5	0x3d4545bc	0.048162207
6	0xbd6ddce9	-0.058072004
7	0x3e011ff4	0.12609845
8	0x3e577c83	0.21043591
9	0xbdf28f72	-0.11843766
10	0x3e23b107	0.159855
11	0x3de780f0	0.1130389
12	0xbdcea9d3	-0.10090985
13	0x3d90bb20	0.07066941
14	0x3dda6ff7	0.10665887
15	0x3e243f6d	0.1603982
16	0x3e309875	0.17245658
17	0xbe44b841	-0.19210912
18	0xbe226ffe	-0.15863034
19	0x3e64a1db	0.22327368
20	0xbe44c847	-0.19217025
21	0xbe34c20c	-0.17652148
22	0xbde55991	-0.11198724
23	0xbe621c89	-0.22081198
24	0xbe01a823	-0.12661795
25	0xbe8496ba	-0.25896245
26	0x3d036b2f	0.03208464
27	0x3df87f32	0.121336356
28	0x3e73e162	0.23816445
29	0x3d9fefe6	0.07809429
30	0xbd3e9ac0	-0.0465343
31	0xbcb77eec	-0.022399388
32	0x3d34a58d	0.044103194
33	0xbe53d7fd	-0.20687862
34	0xbdac7e82	-0.08422567
35	0x3df8b9f5	0.121448435
36	0xbe2d537e	-0.16926381
37	0x3db8f5b1	0.09031237
38	0xbe50c491	-0.20387484
39	0x3e2757d5	0.16342099
40	0x3e38fd38	0.18065345
41	0x3e2caa6f	0.1686189
42	0x3e42c7b0	0.19021487
43	0xbe1c54b6	-0.1526669
44	0xbe1c3ee3	-0.15258364
45	0x3ded261c	0.115795344
46	0x3ce2d39e	0.027688798
47	0xbcfac9e2	-0.030613843
48	0x3dc466f4	0.09589949
49	0xbe35ac34	-0.17741472
50	0x3d9f998f	0.07792961
51	0x3e2a7c1c	0.16648906
52	0x3e45566c	0.19271249
53	0x3dba523c	0.09097716
54	0xbd8591d1	-0.06521953
55	0x3dada9cf	0.08479654
56	0xbe3280a6	-0.17431888
57	0x3e18ebb1	0.14933659
58	0x3dc057e1	0.093917616
59	0x3e0f8f98	0.1401962
60	0x3d27fdef	0.041013654
61	0xbd9b32e8	-0.07578069
62	0x3dfd375a	0.12364073
63	0xbd91c74c	-0.07118091
